models/best_model.ckpt (torch, 445538 bytes, 40 tensors)

melspec.spectrogram.window f4 [1024]
0	0x00000000	0.0
1	0x371e0000	9.417534e-06
2	0x381de000	3.7640333e-05
3	0x38b1a000	8.46982e-05
4	0x391de800	0.00015059114
5	0x3976b800	0.00023528934
6	0x39b1a400	0.0003388226
7	0x39f1c400	0.00046113133
8	0x3a1de200	0.00060227513
9	0x3a47d000	0.0007622242
10	0x3a76aa00	0.0009409487
11	0x3a953900	0.0011384785
12	0x3ab19300	0.0013547838
13	0x3ad06300	0.0015898645
14	0x3af1a800	0.0018436909
15	0x3b0ab180	0.0021162927
16	0x3b1dc980	0.0024076402
17	0x3b321b80	0.0027177036
18	0x3b47a800	0.0030465126
19	0x3b5e6e80	0.0033940375
20	0x3b766e80	0.0037602484
21	0x3b87d3c0	0.0041451156
22	0x3b950d40	0.0045486987
23	0x3ba2e300	0.004970908
24	0x3bb15500	0.005411744
25	0x3bc06340	0.0058712065
26	0x3bd00dc0	0.0063492954
27	0x3be05400	0.006845951
28	0x3bf13600	0.0073611736
29	0x3c0159e0	0.007894963
30	0x3c0a6660	0.00844726
31	0x3c13c080	0.009018064
32	0x3c1d6820	0.009607345
33	0x3c275d40	0.010215104
34	0x3c319fc0	0.01084131
35	0x3c3c2f80	0.011485934
36	0x3c470c60	0.0121489465
37	0x3c523640	0.012830317
38	0x3c5dad00	0.013530016
39	0x3c6970a0	0.014248043
40	0x3c758100	0.014984369
41	0x3c80ef00	0.015738964
42	0x3c8743b0	0.016511768
43	0x3c8dbe90	0.017302781
44	0x3c945f90	0.018111974
45	0x3c9b2690	0.018939286
46	0x3ca213a0	0.019784749
47	0x3ca92690	0.02064827
48	0x3cb05f50	0.021529824
49	0x3cb7bde0	0.022429407
50	0x3cbf4230	0.02334699
51	0x3cc6ec10	0.024282485
52	0x3ccebb90	0.025235921
53	0x3cd6b080	0.026207209
54	0x3cdecae0	0.027196348
55	0x3ce70a90	0.028203279
56	0x3cef6f80	0.029227972
57	0x3cf7f9a0	0.030270398
58	0x3d005468	0.031330496
59	0x3d04be80	0.032408237
60	0x3d093b10	0.033503592
61	0x3d0dca10	0.03461653
62	0x3d126b68	0.03574696
63	0x3d171f18	0.036894888
64	0x3d1be510	0.038060248
65	0x3d20bd40	0.039242983
66	0x3d25a7a0	0.040443063
67	0x3d2aa428	0.041660458
68	0x3d2fb2d0	0.04289514
69	0x3d34d378	0.044146985
70	0x3d3a0628	0.045416027
71	0x3d3f4ac0	0.046702147
72	0x3d44a140	0.048005342
73	0x3d4a09a0	0.049325585
74	0x3d4f83c0	0.050662756
75	0x3d550fa8	0.052016884
76	0x3d5aad38	0.05338785
77	0x3d605c68	0.054775625
78	0x3d661d38	0.05618021
79	0x3d6bef80	0.057601452
80	0x3d71d348	0.059039384
81	0x3d77c870	0.060493886
82	0x3d7dcef8	0.06196496
83	0x3d81f364	0.06345251
84	0x3d8507ec	0.064956516
85	0x3d882508	0.06647688
86	0x3d8b4ab4	0.06801358
87	0x3d8e78e8	0.06956655
88	0x3d91af98	0.0711357
89	0x3d94eec0	0.072721004
90	0x3d983658	0.0743224
91	0x3d9b8658	0.075939834
92	0x3d9edeb4	0.07757321
93	0x3da23f6c	0.07922253
94	0x3da5a86c	0.080887645
95	0x3da919b8	0.082568586
96	0x3dac933c	0.0842652
97	0x3db014f8	0.085977495
98	0x3db39ee0	0.087705374
99	0x3db730e8	0.08944875
100	0x3dbacb0c	0.09120759
101	0x3dbe6d44	0.092981845
102	0x3dc21784	0.094771415
103	0x3dc5c9c0	0.096576214
104	0x3dc983f8	0.09839624
105	0x3dcd461c	0.10023138
106	0x3dd11020	0.10208154
107	0x3dd4e204	0.103946716
108	0x3dd8bbb8	0.105826795
109	0x3ddc9d30	0.10772169
110	0x3de0866c	0.10963139
111	0x3de4775c	0.111555785
112	0x3de86ff4	0.11349478
113	0x3dec702c	0.115448326
114	0x3df07800	0.11741638
115	0x3df48760	0.11939883
116	0x3df89e40	0.12139559
117	0x3dfcbc9c	0.12340662
118	0x3e007132	0.1254318
119	0x3e0287ca	0.12747112
120	0x3e04a20e	0.12952444
121	0x3e06bffc	0.13159174
122	0x3e08e18c	0.1336729
123	0x3e0b06b8	0.13576782
124	0x3e0d2f7c	0.13787645
125	0x3e0f5bd6	0.13999876
126	0x3e118bbc	0.1421346
127	0x3e13bf28	0.14428389
128	0x3e15f61a	0.14644662
129	0x3e183088	0.14862263
130	0x3e1a6e6e	0.15081188
131	0x3e1cafc6	0.15301427
132	0x3e1ef48c	0.15522975
133	0x3e213cb8	0.15745819
134	0x3e238844	0.1596995
135	0x3e25d72e	0.16195366
136	0x3e28296e	0.16422054
137	0x3e2a7efc	0.16650003
138	0x3e2cd7d8	0.16879213
139	0x3e2f33f6	0.17109665
140	0x3e319356	0.1734136
141	0x3e33f5ec	0.1757428
142	0x3e365bb6	0.17808422
143	0x3e38c4b0	0.1804378
144	0x3e3b30ce	0.18280336
145	0x3e3da010	0.1851809
146	0x3e40126c	0.18757027
147	0x3e4287de	0.18997142
148	0x3e45005e	0.19238421
149	0x3e477be8	0.1948086
150	0x3e49fa76	0.1972445
151	0x3e4c7c00	0.19969177
152	0x3e4f0080	0.20215034
153	0x3e5187f2	0.20462015
154	0x3e54124e	0.20710108
155	0x3e569f8e	0.20959303
156	0x3e592fac	0.21209592
157	0x3e5bc2a2	0.21460965
158	0x3e5e5866	0.21713409
159	0x3e60f0f8	0.21966922
160	0x3e638c4e	0.2222149
161	0x3e662a60	0.22477102
162	0x3e68cb2a	0.22733751
163	0x3e6b6ea4	0.22991425
164	0x3e6e14ca	0.23250118
165	0x3e70bd94	0.23509818
166	0x3e7368fc	0.23770517
167	0x3e7616fa	0.24032202
168	0x3e78c788	0.24294865
169	0x3e7b7aa0	0.24558496
170	0x3e7e3036	0.24823079
171	0x3e807426	0.25088614
172	0x3e81d16c	0.2535509
173	0x3e832fea	0.25622493
174	0x3e848f9c	0.25890815
175	0x3e85f07d	0.2616004
176	0x3e87528c	0.26430166
177	0x3e88b5c4	0.26701176
178	0x3e8a1a22	0.26973063
179	0x3e8b7fa4	0.2724582
180	0x3e8ce646	0.27519435
181	0x3e8e4e04	0.27793896
182	0x3e8fb6da	0.28069192
183	0x3e9120c4	0.2834531
184	0x3e928bc0	0.28622246
185	0x3e93f7ca	0.28899986
186	0x3e9564e0	0.29178524
187	0x3e96d2fc	0.29457843
188	0x3e98421c	0.29737937
189	0x3e99b23c	0.30018795
190	0x3e9b2358	0.30300403
191	0x3e9c956b	0.30582747
192	0x3e9e0876	0.3086583
193	0x3e9f7c72	0.31149632
194	0x3ea0f15c	0.31434143
195	0x3ea26730	0.3171935
196	0x3ea3ddec	0.3200525
197	0x3ea5558c	0.3229183
198	0x3ea6ce08	0.32579064
199	0x3ea84763	0.32866964
200	0x3ea9c196	0.33155507
201	0x3eab3c9e	0.33444685
202	0x3eacb878	0.33734488
203	0x3eae351e	0.340249
204	0x3eafb28f	0.34315917
205	0x3eb130c4	0.34607518
206	0x3eb2afbd	0.34899703
207	0x3eb42f75	0.35192457
208	0x3eb5afe8	0.35485768
209	0x3eb73112	0.35779625
210	0x3eb8b2f0	0.36074018
211	0x3eba357e	0.36368936
212	0x3ebbb8b6	0.3666436
213	0x3ebd3c99	0.36960295
214	0x3ebec120	0.37256718
215	0x3ec04648	0.3755362
216	0x3ec1cc0e	0.37850994
217	0x3ec3526d	0.38148823
218	0x3ec4d960	0.38447094
219	0x3ec660e6	0.38745803
220	0x3ec7e8fc	0.3904494
221	0x3ec9719b	0.39344487
222	0x3ecafac0	0.39644432
223	0x3ecc8469	0.3994477
224	0x3ece0e91	0.40245488
225	0x3ecf9932	0.40546566
226	0x3ed1244c	0.40848005
227	0x3ed2afda	0.4114979
228	0x3ed43bd8	0.41451907
229	0x3ed5c842	0.41754347
230	0x3ed75514	0.42057097
231	0x3ed8e24a	0.42360145
232	0x3eda6fdf	0.42663476
233	0x3edbfdd2	0.42967087
234	0x3edd8c1f	0.43270966
235	0x3edf1ac0	0.43575096
236	0x3ee0a9b2	0.43879467
237	0x3ee238f2	0.4418407
238	0x3ee3c87c	0.44488895
239	0x3ee55849	0.4479392
240	0x3ee6e859	0.45099142
241	0x3ee878a8	0.45404553
242	0x3eea0931	0.45710137
243	0x3eeb99f0	0.46015882
244	0x3eed2ae1	0.46321777
245	0x3eeebc00	0.46627808
246	0x3ef04d49	0.46933964
247	0x3ef1deba	0.4724024
248	0x3ef3704d	0.47546616
249	0x3ef50200	0.47853088
250	0x3ef693ce	0.4815964
251	0x3ef825b3	0.48466262
252	0x3ef9b7ac	0.48772943
253	0x3efb49b2	0.49079663
254	0x3efcdbc6	0.49386424
255	0x3efe6de1	0.49693206

melspec.mel_scale.fb f4 [513, 128]
0	0x80000000	-0.0
1	0x00000000	0.0
2	0x00000000	0.0
3	0x00000000	0.0
4	0x00000000	0.0
5	0x00000000	0.0
6	0x00000000	0.0
7	0x00000000	0.0
8	0x00000000	0.0
9	0x00000000	0.0
10	0x00000000	0.0
11	0x00000000	0.0
12	0x00000000	0.0
13	0x00000000	0.0
14	0x00000000	0.0
15	0x00000000	0.0
16	0x00000000	0.0
17	0x00000000	0.0
18	0x00000000	0.0
19	0x00000000	0.0
20	0x00000000	0.0
21	0x00000000	0.0
22	0x00000000	0.0
23	0x00000000	0.0
24	0x00000000	0.0
25	0x00000000	0.0
26	0x00000000	0.0
27	0x00000000	0.0
28	0x00000000	0.0
29	0x00000000	0.0
30	0x00000000	0.0
31	0x00000000	0.0
32	0x00000000	0.0
33	0x00000000	0.0
34	0x00000000	0.0
35	0x00000000	0.0
36	0x00000000	0.0
37	0x00000000	0.0
38	0x00000000	0.0
39	0x00000000	0.0
40	0x00000000	0.0
41	0x00000000	0.0
42	0x00000000	0.0
43	0x00000000	0.0
44	0x00000000	0.0
45	0x00000000	0.0
46	0x00000000	0.0
47	0x00000000	0.0
48	0x00000000	0.0
49	0x00000000	0.0
50	0x00000000	0.0
51	0x00000000	0.0
52	0x00000000	0.0
53	0x00000000	0.0
54	0x00000000	0.0
55	0x00000000	0.0
56	0x00000000	0.0
57	0x00000000	0.0
58	0x00000000	0.0
59	0x00000000	0.0
60	0x00000000	0.0
61	0x00000000	0.0
62	0x00000000	0.0
63	0x00000000	0.0
64	0x00000000	0.0
65	0x00000000	0.0
66	0x00000000	0.0
67	0x00000000	0.0
68	0x00000000	0.0
69	0x00000000	0.0
70	0x00000000	0.0
71	0x00000000	0.0
72	0x00000000	0.0
73	0x00000000	0.0
74	0x00000000	0.0
75	0x00000000	0.0
76	0x00000000	0.0
77	0x00000000	0.0
78	0x00000000	0.0
79	0x00000000	0.0
80	0x00000000	0.0
81	0x00000000	0.0
82	0x00000000	0.0
83	0x00000000	0.0
84	0x00000000	0.0
85	0x00000000	0.0
86	0x00000000	0.0
87	0x00000000	0.0
88	0x00000000	0.0
89	0x00000000	0.0
90	0x00000000	0.0
91	0x00000000	0.0
92	0x00000000	0.0
93	0x00000000	0.0
94	0x00000000	0.0
95	0x00000000	0.0
96	0x00000000	0.0
97	0x00000000	0.0
98	0x00000000	0.0
99	0x00000000	0.0
100	0x00000000	0.0
101	0x00000000	0.0
102	0x00000000	0.0
103	0x00000000	0.0
104	0x00000000	0.0
105	0x00000000	0.0
106	0x00000000	0.0
107	0x00000000	0.0
108	0x00000000	0.0
109	0x00000000	0.0
110	0x00000000	0.0
111	0x00000000	0.0
112	0x00000000	0.0
113	0x00000000	0.0
114	0x00000000	0.0
115	0x00000000	0.0
116	0x00000000	0.0
117	0x00000000	0.0
118	0x00000000	0.0
119	0x00000000	0.0
120	0x00000000	0.0
121	0x00000000	0.0
122	0x00000000	0.0
123	0x00000000	0.0
124	0x00000000	0.0
125	0x00000000	0.0
126	0x00000000	0.0
127	0x00000000	0.0
128	0x3f1da6b3	0.6158249
129	0x3ec4b29a	0.38417512
130	0x00000000	0.0
131	0x00000000	0.0
132	0x00000000	0.0
133	0x00000000	0.0
134	0x00000000	0.0
135	0x00000000	0.0
136	0x00000000	0.0
137	0x00000000	0.0
138	0x00000000	0.0
139	0x00000000	0.0
140	0x00000000	0.0
141	0x00000000	0.0
142	0x00000000	0.0
143	0x00000000	0.0
144	0x00000000	0.0
145	0x00000000	0.0
146	0x00000000	0.0
147	0x00000000	0.0
148	0x00000000	0.0
149	0x00000000	0.0
150	0x00000000	0.0
151	0x00000000	0.0
152	0x00000000	0.0
153	0x00000000	0.0
154	0x00000000	0.0
155	0x00000000	0.0
156	0x00000000	0.0
157	0x00000000	0.0
158	0x00000000	0.0
159	0x00000000	0.0
160	0x00000000	0.0
161	0x00000000	0.0
162	0x00000000	0.0
163	0x00000000	0.0
164	0x00000000	0.0
165	0x00000000	0.0
166	0x00000000	0.0
167	0x00000000	0.0
168	0x00000000	0.0
169	0x00000000	0.0
170	0x00000000	0.0
171	0x00000000	0.0
172	0x00000000	0.0
173	0x00000000	0.0
174	0x00000000	0.0
175	0x00000000	0.0
176	0x00000000	0.0
177	0x00000000	0.0
178	0x00000000	0.0
179	0x00000000	0.0
180	0x00000000	0.0
181	0x00000000	0.0
182	0x00000000	0.0
183	0x00000000	0.0
184	0x00000000	0.0
185	0x00000000	0.0
186	0x00000000	0.0
187	0x00000000	0.0
188	0x00000000	0.0
189	0x00000000	0.0
190	0x00000000	0.0
191	0x00000000	0.0
192	0x00000000	0.0
193	0x00000000	0.0
194	0x00000000	0.0
195	0x00000000	0.0
196	0x00000000	0.0
197	0x00000000	0.0
198	0x00000000	0.0
199	0x00000000	0.0
200	0x00000000	0.0
201	0x00000000	0.0
202	0x00000000	0.0
203	0x00000000	0.0
204	0x00000000	0.0
205	0x00000000	0.0
206	0x00000000	0.0
207	0x00000000	0.0
208	0x00000000	0.0
209	0x00000000	0.0
210	0x00000000	0.0
211	0x00000000	0.0
212	0x00000000	0.0
213	0x00000000	0.0
214	0x00000000	0.0
215	0x00000000	0.0
216	0x00000000	0.0
217	0x00000000	0.0
218	0x00000000	0.0
219	0x00000000	0.0
220	0x00000000	0.0
221	0x00000000	0.0
222	0x00000000	0.0
223	0x00000000	0.0
224	0x00000000	0.0
225	0x00000000	0.0
226	0x00000000	0.0
227	0x00000000	0.0
228	0x00000000	0.0
229	0x00000000	0.0
230	0x00000000	0.0
231	0x00000000	0.0
232	0x00000000	0.0
233	0x00000000	0.0
234	0x00000000	0.0
235	0x00000000	0.0
236	0x00000000	0.0
237	0x00000000	0.0
238	0x00000000	0.0
239	0x00000000	0.0
240	0x00000000	0.0
241	0x00000000	0.0
242	0x00000000	0.0
243	0x00000000	0.0
244	0x00000000	0.0
245	0x00000000	0.0
246	0x00000000	0.0
247	0x00000000	0.0
248	0x00000000	0.0
249	0x00000000	0.0
250	0x00000000	0.0
251	0x00000000	0.0
252	0x00000000	0.0
253	0x00000000	0.0
254	0x00000000	0.0
255	0x00000000	0.0

layer1.conv.weight f4 [16, 1, 3, 3]
0	0x3dc4ad03	0.09603312
1	0x3e88e393	0.26736125
2	0x3e3c2fc7	0.183776
3	0xbe689c20	-0.22715807
4	0x3e515616	0.20442995
5	0x3daba37b	0.08380791
6	0xbe60e89c	-0.21963733
7	0xbe770aeb	-0.24125259
8	0xbe100c65	-0.14067228
9	0xbddd1354	-0.10794702
10	0xbe12813b	-0.1430711
11	0x3df324a6	0.118722245
12	0x3e83d243	0.25746354
13	0x3e30cac8	0.17264855
14	0xbe369c4a	-0.17833057
15	0xbdbe7fa7	-0.093016915
16	0xbe0dfeb1	-0.13866688
17	0x3df11be3	0.11772897
18	0x3e6fa59c	0.23403019
19	0xbd83ac15	-0.064293064
20	0x3e862eda	0.2620762
21	0xbdfb5b92	-0.12273325
22	0x3e129784	0.14315611
23	0x3e86b521	0.26310065
24	0x3e0715fa	0.13191977
25	0xbd9b12f3	-0.07571974
26	0xbd746072	-0.05966229
27	0xbe808f0a	-0.2510913
28	0xbe2d9585	-0.16951568
29	0x3d844983	0.06459334
30	0x3d875368	0.06607705
31	0x3e0c018c	0.13672465
32	0x3d8f1744	0.069868594
33	0x3dea71ab	0.11447462
34	0xbe9e353a	-0.30899984
35	0x3c29d5ba	0.010365898
36	0xbe5bfefe	-0.2148399
37	0xbd2515fc	-0.04030417
38	0xbb87e707	-0.0041474137
39	0xbd9e2366	-0.077215955
40	0xbd829cad	-0.0637754
41	0x3e5e6ae7	0.21720468
42	0x3e6bb41b	0.23017924
43	0xbe2f29ca	-0.17105785
44	0xbe17349e	-0.14766166
45	0x3e8955fd	0.26823416
46	0x3d72591e	0.05916702
47	0x3e4b0d92	0.19829395
48	0xbdd25f27	-0.10272055
49	0x3e74ad49	0.23894228
50	0x3d9099e5	0.07060603
51	0x3dc35732	0.095381156
52	0x3dcdb79d	0.10044787
53	0xbe8f9074	-0.28039896
54	0xbe1ec725	-0.15505655
55	0x3dad74d6	0.0846955
56	0xbe272cfa	-0.16325751
57	0xbe7cffa2	-0.24706891
58	0xbe0682f5	-0.13135894
59	0xbd7efe70	-0.06225437
60	0x3e237830	0.15963817
61	0xbd8604c0	-0.06543875
62	0x3e833565	0.25626674
63	0xbd271bcd	-0.040797997
64	0xbe877b92	-0.26461464
65	0x3e8c1339	0.27358416
66	0xbd318aa6	-0.043345116
67	0x3e725b0d	0.23667546
68	0x3ea680a4	0.3252002
69	0xbe953a9b	-0.29146275
70	0xbe2ae2c1	-0.16688062
71	0x3d9074fb	0.07053562
72	0xbdf167bb	-0.11787363
73	0xbd839e84	-0.06426719
74	0x3ceb181f	0.028698025
75	0xbe6309c8	-0.221717
76	0xbe9f4ae7	-0.31111833
77	0xbbc62aae	-0.0060475683
78	0xbe8210cf	-0.2540345
79	0x3d79dcf2	0.061001725
80	0x3e728017	0.23681675
81	0x3c5d863f	0.013520776
82	0x3e339d15	0.17540391
83	0xbe0539f4	-0.13010389
84	0x3dd9a8ef	0.10627925
85	0xbe86792b	-0.2626432
86	0xbd8284c0	-0.06372976
87	0xbe5d9afa	-0.2164115
88	0x3e83f4e0	0.25772762
89	0xbe0e8851	-0.13919188
90	0x3e052240	0.13001347
91	0xbdc42aeb	-0.095784985
92	0x3dfe03a4	0.12403038
93	0xbd62f79e	-0.055411927
94	0xbe0de7a6	-0.13857898
95	0xbdf9929a	-0.12186165
96	0xbe042602	-0.12905124
97	0xbdbdb981	-0.09263898
98	0xbc7e9f13	-0.015540856
99	0xbdc53523	-0.09629276
100	0xbe817e17	-0.2529151
101	0x3e94d814	0.29071105
102	0x3e8b05e2	0.27152926
103	0xbe985d9a	-0.29758912
104	0x3e98def0	0.29857588
105	0x3e2477f5	0.16061385
106	0x3dfe465d	0.124157645
107	0xbdb246bc	-0.08704898
108	0xbdb28885	-0.08717445
109	0xbcf896a1	-0.030345263
110	0x3e41094c	0.18851203
111	0xbe8f6845	-0.2800924
112	0x3e254a91	0.16141726
113	0xbe8b7ed2	-0.27245194
114	0x3e98faf0	0.2987895
115	0xbe66089b	-0.2246422
116	0x3e94c1bb	0.29054055
117	0x3e85fd90	0.26170015
118	0xbeacf45a	-0.33780175
119	0x3e993f5a	0.29931146
120	0x3d4f3263	0.050585162
121	0x3d50988b	0.050926726
122	0x3e7d70eb	0.24750106
123	0xbe7dd84c	-0.24789542
124	0x3dfec7da	0.124404624
125	0xbdec430b	-0.11536225
126	0xbe22c820	-0.15896654
127	0x3e2e5d52	0.17027786
128	0x3d823bc6	0.06359057
129	0xbcc59134	-0.02411709
130	0xbce663f7	-0.028123839
131	0xbe535b7f	-0.20640372
132	0xbe8cb1e2	-0.27479464
133	0xbdb9d421	-0.090736635
134	0x3e54f606	0.20796975
135	0xbc97ca28	-0.018529013
136	0x3ddee3b2	0.10883273
137	0xbe7889b2	-0.24271277
138	0xbda08403	-0.07837679
139	0x3ea3b6bc	0.31975353
140	0x3e52e183	0.20593838
141	0x3dce40eb	0.10070976
142	0x3dce140d	0.10062418
143	0x3d3f62be	0.046725027

layer1.conv.bias f4 [16]
0	0xbe630306	-0.22169122
1	0x3e82c3be	0.25539964
2	0x3e9fd7f1	0.31219438
3	0xbe448cc6	-0.19194326
4	0x3e952cdf	0.29135796
5	0x3e7bd1e0	0.2459178
6	0xbe9308e6	-0.28717726
7	0x3e85c6bc	0.26128185
8	0x3e456acc	0.19279021
9	0x3e9e1048	0.30871797
10	0xbbecc479	-0.00722557
11	0x3e1c7dc7	0.15282355
12	0xbe8b7c5f	-0.27243325
13	0xbc5041fe	-0.012711046
14	0x3de8d87f	0.11369418
15	0xbe935012	-0.28772026

layer1.bn.weight f4 [16]
0	0x3f82bd69	1.0214053
1	0x3f7ee1ab	0.9956309
2	0x3f81c59f	1.0138434
3	0x3f7f40b4	0.99708104
4	0x3f7f1b87	0.9965138
5	0x3f7fc59a	0.9991089
6	0x3f7cbcd4	0.9872563
7	0x3f80fb27	1.0076646
8	0x3f7fc1ed	0.9990528
9	0x3f7c772d	0.9861935
10	0x3f811fca	1.0087826
11	0x3f7e3383	0.9929735
12	0x3f7e2452	0.9927417
13	0x3f7dd84a	0.99158156
14	0x3f7d9288	0.99051714
15	0x3f80f43c	1.0074534

layer1.bn.bias f4 [16]
0	0x3c3ee1ce	0.011650516
1	0xbaee8d3a	-0.0018200048
2	0x3bf53724	0.00748338
3	0x3a718ef6	0.0009214723
4	0x3c20e577	0.009820334
5	0x3a75f225	0.00093820906
6	0xbbeab904	-0.007163169
7	0x3bced266	0.0063117025
8	0x3b512310	0.0031911768
9	0xbc320c0d	-0.010867131
10	0x3bc691aa	0.006059845
11	0xbc8a42d9	-0.016877579
12	0xbb7b66b6	-0.003836078
13	0xbbcf655e	-0.0063292226
14	0x3aca4dc0	0.0015434548
15	0x3be24db6	0.0069062365

layer1.bn.running_mean f4 [16]
0	0xbe5495e8	-0.2076031
1	0x3e81d8aa	0.25360614
2	0x3ea1b51a	0.31583482
3	0xbe495f76	-0.19665322
4	0x3e90da6f	0.28291652
5	0x3e81d76a	0.2535966
6	0xbe93751a	-0.2880028
7	0x3e841ddf	0.2580404
8	0x3e43a547	0.19106017
9	0x3e9c2abf	0.30501363
10	0xbb4108a4	-0.0029454613
11	0x3e17c86a	0.14822546
12	0xbe88b863	-0.26703176
13	0xbc11c446	-0.008896893
14	0x3deb4260	0.114872694
15	0xbe923a1e	-0.28559965

layer1.bn.running_var f4 [16]
0	0x3df9eef3	0.12203779
1	0x3c914c10	0.017736465
2	0x3ee68d36	0.4502961
3	0x3da7a1ab	0.081851326
4	0x3da089a3	0.07838752
5	0x3ecd83b5	0.40139547
6	0x3e0e8a9d	0.13920064
7	0x3ddf8f7a	0.10916038
8	0x3ee152fa	0.4400862
9	0x3d95cac3	0.07314064
10	0x3e22cbee	0.15898106
11	0x3e36afab	0.1784045
12	0x3d217016	0.039413534
13	0x3e17eef2	0.14837244
14	0x3e00e6e9	0.12588085
15	0x3e9c2225	0.304948

layer2.conv.weight f4 [16, 16, 3, 3]
0	0xbc2be1f7	-0.010490886
1	0x3da066de	0.0783212
2	0xbd18b6fb	-0.03728388
3	0x3d87f2af	0.06638085
4	0x3da65eae	0.081235275
5	0x3da0bbd6	0.07848327
6	0x3c231fcf	0.009956314
7	0x3cdb9151	0.02680269
8	0xbd3c62e6	-0.045992754
9	0x3d8d3030	0.06893957
10	0xbce13f1c	-0.027495913
11	0x3d68dcb3	0.0568511
12	0xba0671d2	-0.0005128655
13	0xbc2a33d9	-0.010388338
14	0x3cb55468	0.022134975
15	0x3d7d5914	0.06185253
16	0xbd5c8a74	-0.053842977
17	0x3d31b086	0.043381236
18	0xbc7d4dce	-0.015460445
19	0x3c726d97	0.014796636
20	0xbb9975a8	-0.004683215
21	0x3bd64c83	0.0065398826
22	0xbd9dba50	-0.07701552
23	0x3d276f98	0.04087791
24	0x3d1d12f9	0.03834817
25	0xbd4b6dda	-0.04966531
26	0xbd79051d	-0.060795892
27	0xbca28baf	-0.019841997
28	0xbdabaa82	-0.08382131
29	0xbd5e3f08	-0.05425933
30	0x3da9881d	0.08277915
31	0x3d33e505	0.043919582
32	0x3d447c08	0.047969848
33	0x3ce43a52	0.02785984
34	0x3d10f252	0.035387345
35	0xbc916791	-0.01774958
36	0x3d432074	0.04763837
37	0xbd859137	-0.06521838
38	0x3d60cef2	0.05488486
39	0xbc8aea0a	-0.016957302
40	0x3c83c892	0.01608685
41	0xbd20cd28	-0.039258152
42	0x3d57369a	0.052542306
43	0x3d76052f	0.060063537
44	0x3d083638	0.033254832
45	0xbc825557	-0.015909834
46	0xbcdeb166	-0.0271842
47	0x3d8cce1e	0.06875251
48	0x3cc18e1f	0.023627339
49	0x3c161c0f	0.009161963
50	0x3c84fb7f	0.016233204
51	0x3d982253	0.07428422
52	0x3d4beaf3	0.049784612
53	0x3d6ce09b	0.057831388
54	0xbd46b7d2	-0.04851515
55	0x3c5ebf84	0.013595466
56	0xbcf2e487	-0.029649986
57	0xbd70cf6f	-0.058791574
58	0x3da01c38	0.07817882
59	0xbdbba671	-0.091626056
60	0x3d773990	0.06035763
61	0xbd61c72e	-0.055121593
62	0x3d2385a2	0.039922364
63	0xbc7b0050	-0.015319899
64	0xbd853969	-0.06505091
65	0x3b985faf	0.0046500782
66	0xbd9008a5	-0.07032899
67	0x3ba87fd4	0.0051421914
68	0xbd22c34d	-0.039737035
69	0x3d889731	0.066694625
70	0x3d81ec76	0.063439295
71	0x3c3536d1	0.0110604325
72	0x3bf06681	0.007336438
73	0x3d8a15d3	0.06742444
74	0xbd8d5895	-0.06901661
75	0x3da91880	0.08256626
76	0x3d210dea	0.03931991
77	0xbda7e1c7	-0.081973605
78	0xbd351ec9	-0.044218812
79	0x3cd2d54b	0.025736472
80	0x3da03585	0.07822708
81	0xbd952aa3	-0.07283523
82	0x3cf75c02	0.03019524
83	0xb9b7bb18	-0.00035043876
84	0xbad6407c	-0.0016346122
85	0xbd94b9c5	-0.07261995
86	0xbd86fa42	-0.06590702
87	0xbd44d253	-0.048052143
88	0x3d52ac86	0.051434062
89	0xbcdc236c	-0.02687236
90	0x3d1e6aa6	0.038675927
91	0x3b77b15c	0.0037794923
92	0xbd1ca512	-0.03824336
93	0xbd29a2d2	-0.041415043
94	0xbcb420d3	-0.021988308
95	0xbd5d78a0	-0.054070115
96	0x3d4eb0a5	0.05046143
97	0xbd4303a4	-0.047610894
98	0xbd35aa9f	-0.04435217
99	0xbabf49c5	-0.0014594129
100	0xbce98aaf	-0.028508512
101	0xbcf53cb3	-0.02993617
102	0xbc086641	-0.0083251605
103	0xbd3cbfd4	-0.04608138
104	0xbd846fde	-0.064666495
105	0xbd9ed53d	-0.07755516
106	0x3d8e2aee	0.06941782
107	0xbd7f4ecf	-0.062331017
108	0x3d455b2a	0.048182644
109	0x3d7e2f2c	0.062056705
110	0xbd539d42	-0.051663645
111	0xbd90150e	-0.07035266
112	0x3d869aab	0.06572469
113	0x3d8ebce7	0.06969624
114	0xbc0eae3b	-0.008708532
115	0x3ace4c9e	0.0015739386
116	0xbd1668f3	-0.03672118
117	0x3db10f80	0.086455345
118	0x3dbf9b6f	0.093558185
119	0x3b1c0a85	0.002380998
120	0xbbcf03f6	-0.006317611
121	0x3d813f20	0.06310868
122	0x3d237a39	0.039911482
123	0x3c907fe0	0.0176391
124	0xbaf93497	-0.0019012865
125	0x3d8697d1	0.065719254
126	0xbd9311e5	-0.071811475
127	0xbd86b679	-0.06577773
128	0xbd039fdb	-0.032134872
129	0x3c4eb0e7	0.012615419
130	0xbc4b6521	-0.012414248
131	0xbda43823	-0.0801852
132	0xbc91d471	-0.017801495
133	0xbc77c38b	-0.015122305
134	0x3cf0a1a7	0.029373957
135	0xbc74e886	-0.014948016
136	0x38cf5e8c	9.88814e-05
137	0xbc9e0e5b	-0.019293955
138	0x3d974102	0.07385446
139	0xbd08e125	-0.03341784
140	0x3da0fd55	0.07860819
141	0x3d406e67	0.046980288
142	0xbcd92115	-0.026505033
143	0x3d128750	0.035773575
144	0xbca49831	-0.020092102
145	0xbd2a7521	-0.04161561
146	0xbbee1743	-0.0072659566
147	0x3cf190b0	0.029487938
148	0xbbfca9b0	-0.007710658
149	0xbda9ce40	-0.08291292
150	0x3d359f3f	0.044341322
151	0xbd49e3cd	-0.049289513
152	0x3cd09b4b	0.025464674
153	0xbd4a0544	-0.049321428
154	0x3d97dab7	0.074147634
155	0xbced5657	-0.028971834
156	0xbd3819f3	-0.044946622
157	0x3d9d68ff	0.07686042
158	0xbbac8e22	-0.005265967
159	0xbd5d3b56	-0.054011665
160	0x3d0e64a1	0.034763936
161	0x3d9d68f7	0.07686036
162	0x3da52f37	0.08065646
163	0x3cdbc94d	0.026829386
164	0x3d1d6394	0.038425043
165	0xbd95657d	-0.07294748
166	0xbc872e82	-0.016501669
167	0x3d59be65	0.05316009
168	0xbd855822	-0.065109506
169	0xbcf4dff1	-0.02989194
170	0x3da3cefe	0.07998465
171	0xbd4c7930	-0.04992026
172	0xbc2711dd	-0.01019713
173	0xbd04dfb8	-0.032439917
174	0xbdcc0135	-0.09961168
175	0x3cba761e	0.0227614
176	0xbcd030ce	-0.025413897
177	0xb8417f00	-4.6133064e-05
178	0x3d85d9b0	0.06535661
179	0xbd2d79da	-0.042352535
180	0xbd4cf95b	-0.05004249
181	0xbd551c99	-0.052029226
182	0x3d0a0933	0.03370018
183	0xbdae3778	-0.085066736
184	0x3d9101c0	0.07080412
185	0x3c451bfa	0.012030596
186	0xbce7584c	-0.028240345
187	0xbb3abae2	-0.0028492738
188	0xbdadfd85	-0.08495621
189	0x3d1f3192	0.038865633
190	0x3d917745	0.07102827
191	0xbd2e74d5	-0.04259189
192	0xbd72b093	-0.059250426
193	0xbd27a5b9	-0.04092953
194	0x3c5abbba	0.013350422
195	0xbd4e05f4	-0.050298646
196	0x3c1c866b	0.009553532
197	0x3be15374	0.0068764035
198	0x3d6c3857	0.057670917
199	0x3bc3828c	0.00596649
200	0xbda280c8	-0.07934719
201	0x3d974b5e	0.07387422
202	0x3c83fbed	0.016111339
203	0x3d46b54e	0.04851275
204	0xbd71dd6b	-0.05904905
205	0xbdab1e7f	-0.08355426
206	0x3bf1cfdb	0.0073795146
207	0xbd76f71e	-0.060294263
208	0xbcaab41f	-0.020837842
209	0xbd0bf93d	-0.03417324
210	0xbd4a5a35	-0.049402434
211	0x3dab658e	0.083689794
212	0x3bf70817	0.007538806
213	0xbd94896b	-0.07252773
214	0xbc317696	-0.010831496
215	0x3d3173a8	0.04332319
216	0x3c4d42c6	0.012528127
217	0xbd81ad6b	-0.06331905
218	0xbd7fbccc	-0.06243591
219	0x38d912b2	0.000103508486
220	0x3d0e3ef3	0.034728
221	0x3d4808ff	0.048836704
222	0xbda5bb4f	-0.08092367
223	0xbdbc96d3	-0.09208455
224	0xbc7c7ca9	-0.015410581
225	0x3d79b603	0.060964596
226	0x3c13753f	0.009000122
227	0x3d89eb10	0.06734288
228	0xbcef61f6	-0.029221516
229	0xbd884fd9	-0.06655855
230	0xbc04eca1	-0.008113057
231	0xbd8de525	-0.069284715
232	0xbdae5dd4	-0.0851399
233	0xbb998029	-0.0046844673
234	0xbdbf6742	-0.09345867
235	0xbd0ee3f7	-0.034885373
236	0xbdac56f3	-0.08415022
237	0xbd1d6c12	-0.038433142
238	0x3d200e18	0.03907594
239	0x3d4d56cb	0.0501316
240	0x3d30b525	0.043141503
241	0xbc82a8cf	-0.015949635
242	0xbcee054b	-0.029055258
243	0x3d6c700d	0.057724047
244	0x3cb48d8f	0.022040157
245	0xbccf6532	-0.025316808
246	0x3d02764e	0.031851105
247	0xbd3f9e3f	-0.046781775
248	0xbd506cff	-0.050885197
249	0xbd4796a5	-0.04872765
250	0xbd876cc6	-0.06612544
251	0xbd825508	-0.06363875
252	0xbd58e947	-0.052956846
253	0xbc81d2ee	-0.01584765
254	0xbc95036d	-0.01819011
255	0xbd73e182	-0.059541233

layer2.conv.bias f4 [16]
0	0xbd60b443	-0.05485941
1	0xbc1dec82	-0.009638907
2	0x3d5f8758	0.054572433
3	0x3d94f7d9	0.07273836
4	0x3baea3c9	0.0053295833
5	0xbb8e384a	-0.0043402063
6	0x3d9b04de	0.07569288
7	0xbd41c0c0	-0.04730296
8	0xbb914eeb	-0.0044344566
9	0x3b539cf3	0.0032289594
10	0xbd616474	-0.05502744
11	0x3d037ff5	0.03210445
12	0xbd9fb71c	-0.07798597
13	0xbd185967	-0.037194636
14	0x3d94128a	0.072300985
15	0xbc204bfa	-0.009783739

layer2.bn.weight f4 [16]
0	0x3f81f5d6	1.0153148
1	0x3f7c7aa4	0.98624635
2	0x3f804828	1.002202
3	0x3f7f896f	0.9981908
4	0x3f7e0309	0.9922338
5	0x3f803744	1.0016866
6	0x3f808a9c	1.00423
7	0x3f807458	1.0035505
8	0x3f810682	1.0080111
9	0x3f7f1597	0.9964232
10	0x3f7fbbd3	0.9989597
11	0x3f7fd182	0.9992906
12	0x3f7f8f22	0.9982778
13	0x3f7f5dd7	0.99752563
14	0x3f80d9cc	1.0066466
15	0x3f7dec1b	0.99188393

layer2.bn.bias f4 [16]
0	0x3b8993ed	0.0041985423
1	0x3b11ef03	0.0022267706
2	0x3bd03b54	0.0063547287
3	0xba90244b	-0.0010997144
4	0xbc5b1850	-0.013372496
5	0x3b030359	0.001999101
6	0xbbcd210b	-0.0062600425
7	0x3b3dae21	0.00289429
8	0x3b85c3b2	0.0040821666
9	0xbac8c03c	-0.0015316079
10	0x3afc2395	0.0019236678
11	0xbbb17deb	-0.005416622
12	0xbb9f5075	-0.004861886
13	0xb9948f63	-0.0002833559
14	0x3b4bf159	0.0031119196
15	0xbc06012b	-0.008178989

layer2.bn.running_mean f4 [16]
0	0x3ee0da90	0.4391675
1	0xbf4ba8ae	-0.7955426
2	0x3e75faf9	0.2402152
3	0x3da22604	0.07917407
4	0xbe7b857c	-0.24562639
5	0xbdb65dad	-0.08904586
6	0x3e983820	0.2973032
7	0x3d17d698	0.037069887
8	0x3f1031c8	0.5632596
9	0xbec74873	-0.38922462
10	0xbf2cdce5	-0.6752456
11	0xbe532b60	-0.20622015
12	0x3e8a4474	0.2700535
13	0xbf046dc4	-0.5172999
14	0x3f18ee13	0.5973827
15	0xbf3c50e9	-0.7356096

layer2.bn.running_var f4 [16]
0	0x3e660151	0.2246144
1	0x3eb807d8	0.35943484
2	0x3e2449f6	0.16043839
3	0x3e1d754a	0.15376773
4	0x3f0fa48a	0.5611044
5	0x3e03c568	0.12868273
6	0x3f3726e1	0.715437
7	0x3e7c536a	0.24641195
8	0x3e1dae12	0.15398434
9	0x3ee6621f	0.44996735
10	0x3e50754b	0.20357244
11	0x3e4402b3	0.19141655
12	0x3e6dd307	0.23225032
13	0x3e63f665	0.22261961
14	0x3e4315f9	0.1905135
15	0x3e50a4e3	0.203754

layer3.conv.weight f4 [32, 16, 3, 3]
0	0x3d7aa30a	0.061190642
1	0x3d389433	0.04506321
2	0xbc3b2a24	-0.011423621
3	0x3d04f265	0.032457728
4	0x3d64ade4	0.055829898
5	0xbcbe8670	-0.023257464
6	0x3d960b2c	0.073263496
7	0xbd99ee6f	-0.07516181
8	0xbcec458b	-0.028841754
9	0x3cb7ec29	0.022451477
10	0xbd2eaaea	-0.042643465
11	0xbb94b6e9	-0.004538406
12	0xbd9b0788	-0.07569796
13	0x3d0f2e26	0.03495612
14	0xbd90ce8a	-0.07070644
15	0x3d44cfbd	0.048049677
16	0x3c32150f	0.010869279
17	0xbd879101	-0.06619454
18	0x3c22482f	0.009904905
19	0xbb5fc73b	-0.003414585
20	0xbdaba1bc	-0.08380458
21	0x3bdf1c74	0.006808812
22	0x3d634da7	0.055493977
23	0x3d2f174c	0.042746827
24	0xbd37331b	-0.044726472
25	0xbcc5aa4d	-0.024129057
26	0xbcc56d4a	-0.024099965
27	0xbcd848f5	-0.026401976
28	0x3d81cd24	0.063379556
29	0xbbb7523a	-0.005594519
30	0xbab733c0	-0.0013977215
31	0x3d7ff57f	0.062489983
32	0x3d93b3fc	0.07212064
33	0x3d82f733	0.06394806
34	0x3d8a42ca	0.0675102
35	0xbd545e3e	-0.05184769
36	0xbbfad269	-0.0076544774
37	0x3d1e9bc7	0.03872278
38	0xbc802844	-0.0156442
39	0xbd245abb	-0.04012559
40	0xbd8c94ed	-0.06864343
41	0xbcc1fb3e	-0.023679372
42	0xbcc0b60e	-0.02352431
43	0x3d26b2af	0.04069775
44	0xbd61587d	-0.05501603
45	0xbd16e4c4	-0.03683926
46	0xbd020e78	-0.03175208
47	0x3d711c08	0.058864623
48	0xbd0171ea	-0.031602778
49	0xbd833720	-0.06406999
50	0x3ccdbacd	0.025113488
51	0xbd1a904e	-0.037735276
52	0xbd4a6b8a	-0.049418963
53	0xbd675c43	-0.056484472
54	0x3c52780f	0.012846007
55	0x3ce0e9fe	0.027455326
56	0xbd63af3a	-0.05558703
57	0xbd1d5e2c	-0.038419887
58	0xbdaa669b	-0.08320352
59	0xbc7c54ef	-0.015401109
60	0xbd2f0bb2	-0.042735763
61	0xbd8b74ff	-0.068094246
62	0x3d680f6a	0.056655325
63	0xbd8dcfcf	-0.06924402
64	0xbda3f893	-0.08006396
65	0xbd572759	-0.05252776
66	0xbd47b21d	-0.048753846
67	0xbd1b0d68	-0.037854582
68	0x3d1b99a7	0.03798833
69	0x3d7ffb56	0.062495552
70	0x3cdab547	0.026697768
71	0x3d171e44	0.036894098
72	0x3d57cfb6	0.052688323
73	0xbd5de27f	-0.05417108
74	0xbcc785ed	-0.024355853
75	0xbda424a2	-0.080148
76	0xbca7f23b	-0.020501247
77	0xbda29daf	-0.07940232
78	0xbd702c7b	-0.05863617
79	0xbba01dac	-0.0048863497
80	0x3d130be2	0.035900004
81	0xbc52ba55	-0.012861808
82	0x3d4a2777	0.049354043
83	0x3d88ce27	0.066799454
84	0x3d3f47ca	0.046699323
85	0x3bf8c10e	0.0075913733
86	0x3d1a3cba	0.03765557
87	0xbd1b181e	-0.037864797
88	0xbc884f47	-0.016639365
89	0x3d915fe9	0.070983715
90	0xbc9e59a4	-0.019329853
91	0xbd1e474a	-0.038642205
92	0xbd2290d4	-0.0396889
93	0xbca533bb	-0.020166269
94	0x3b972935	0.0046130666
95	0xb9d5c934	-0.00040776434
96	0x3bbfaadb	0.005849225
97	0xbd5cd30a	-0.0539122
98	0x3d381143	0.044938337
99	0xbcb70c04	-0.022344597
100	0xbce307fd	-0.02771377
101	0x3cab3cb8	0.020902976
102	0x3b624ccf	0.0034530645
103	0xbd2baeb3	-0.041914653
104	0xbd0a5c96	-0.033779703
105	0x3d245da6	0.040128373
106	0x3d290e01	0.04127312
107	0xbd2d773c	-0.04235004
108	0x3d77ffc6	0.06054666
109	0x3cdead8f	0.027182369
110	0x3da7b6f5	0.08189193
111	0x3d0058c6	0.03133466
112	0xbc8cc599	-0.017184066
113	0xbd7b950d	-0.061421443
114	0x3d3b7c70	0.04577297
115	0x3d6d0815	0.057869036
116	0x3d4d1697	0.05007037
117	0xbd295c72	-0.04134793
118	0x3c786fce	0.015163375
119	0xbd46ba85	-0.048517723
120	0xbd518c50	-0.051159203
121	0x3d695a4d	0.056970883
122	0xbd912dd3	-0.070888184
123	0xbd94c2f7	-0.07263749
124	0xbd9d9d30	-0.07695997
125	0x3d4029b1	0.04691476
126	0x3d77fb20	0.060542226
127	0x3c7edae2	0.015555115
128	0xbd88bf64	-0.0667713
129	0x3c6d0cc0	0.014468372
130	0x3caa8ffc	0.02082061
131	0x3cbd9a1e	0.023144778
132	0x3cde2895	0.02711896
133	0xbd0d5253	-0.03450234
134	0xbd599a31	-0.053125564
135	0xbd8b0456	-0.067879364
136	0x3d7add09	0.06124595
137	0xbb1186d7	-0.0022205615
138	0x3d39e3a2	0.045383103
139	0x3c9dd3d1	0.019266041
140	0xbd8c8ef3	-0.06863203
141	0x3d633897	0.05547389
142	0xbd9dd9c2	-0.0770755
143	0xbda80351	-0.082037576
144	0xbb35a981	-0.002771944
145	0xbd2abdce	-0.041684918
146	0xbcfb8cf6	-0.030706864
147	0x3bc37d10	0.0059658363
148	0x3cba896b	0.022770604
149	0xbd2ef17d	-0.04271077
150	0xbc2ec5b6	-0.010667255
151	0x3d1a73a5	0.037707943
152	0xbbc117e4	-0.0058927406
153	0xbd375816	-0.04476174
154	0x3d9f3522	0.07773806
155	0xbc447c4d	-0.011992526
156	0xbd90049f	-0.070321314
157	0x3d8d018d	0.068850614
158	0xbd8409ce	-0.064471826
159	0x3b6ca50c	0.0036109118
160	0xbd8dedd3	-0.06930127
161	0x3d2223a8	0.039584786
162	0xbc9c5159	-0.019081758
163	0xbcdf1f56	-0.027236622
164	0x3d52f5c0	0.051503897
165	0x3d4c4b9a	0.049876787
166	0x3d0437ff	0.032279965
167	0x3dae1d05	0.08501629
168	0xbd87eb33	-0.066366576
169	0xbd99b254	-0.075047165
170	0xbd26dd7a	-0.04073856
171	0x3d7a4283	0.061098587
172	0x3d9451a2	0.07242133
173	0x3d6334d2	0.055470295
174	0x3ce45934	0.027874567
175	0xbc28f610	-0.010312572
176	0xbd54a959	-0.051919315
177	0xba7f8304	-0.0009747001
178	0x3d4246b5	0.047430713
179	0x3d672768	0.056434065
180	0xbd519f72	-0.05117745
181	0xbd0d374f	-0.034476575
182	0xbd73ae0c	-0.059492156
183	0x3ccf19ea	0.025280911
184	0x3d86854d	0.06568394
185	0xbbae6cf6	-0.0053230477
186	0xbd916043	-0.070984386
187	0x3c860a6f	0.016362397
188	0xbcb08c39	-0.021551238
189	0x3b9f39a7	0.0048591676
190	0x3da12386	0.07868104
191	0x3d828d59	0.06374616
192	0xbcb8079d	-0.022464568
193	0xb9c1423c	-0.00036861177
194	0xbc425a89	-0.011862406
195	0xbc49ad34	-0.012309361
196	0x3b2ba1f6	0.0026189066
197	0x3c964ea3	0.018348044
198	0xbd97c942	-0.07411434
199	0x3d53c89d	0.05170499
200	0x3d81f596	0.0634567
201	0x3ccd3bb6	0.025052886
202	0xbbbc143d	-0.0057397173
203	0x3d8bdc92	0.0682918
204	0x3d87e238	0.06634945
205	0x3ca6a5b7	0.02034269
206	0x3cf84967	0.030308438
207	0x3d4f773a	0.050650813
208	0xbd88d9de	-0.0668218
209	0xbd1bf934	-0.038079455
210	0x3d08a2fc	0.03335856
211	0xbd33407d	-0.043762673
212	0xbcfd0487	-0.030885948
213	0x3d83a126	0.06427221
214	0xbce7394f	-0.028225569
215	0xbd779674	-0.060446218
216	0xbd81477f	-0.06312465
217	0x3d0ddd8d	0.034635115
218	0xbcc00add	-0.02344268
219	0x3dab0cf2	0.083520785
220	0x3cb060b5	0.021530489
221	0xbd8ee3e5	-0.06977061
222	0xbd40de7b	-0.047087174
223	0x3c645270	0.01393567
224	0x3d831e8b	0.0640231
225	0x3ca68eae	0.020331707
226	0xbcd1b882	-0.025600675
227	0xbd36abf7	-0.044597592
228	0x3c822022	0.015884463
229	0x3d80d40b	0.06290444
230	0x3d361a85	0.044458885
231	0xbd42533f	-0.04744267
232	0x3d0bf385	0.034167785
233	0x3b86970c	0.0041073617
234	0xbd247349	-0.040149007
235	0x3d970608	0.07374197
236	0xbb45c5b6	-0.003017766
237	0x3d96a647	0.07355934
238	0x3d5d6f47	0.0540612
239	0xbd29ae8d	-0.04142623
240	0xbb8b2207	-0.0042459997
241	0x3d13d064	0.03608741
242	0xbd5d2bc9	-0.053996835
243	0xbd525385	-0.05134918
244	0xbd8bd695	-0.06828038
245	0xbd86f7d5	-0.06590239
246	0x3d9dd2a3	0.077061914
247	0x3db9ca98	0.09071845
248	0x3cdda86b	0.027057847
249	0xbd2fcaf1	-0.04291815
250	0x3d98db4a	0.07463701
251	0xbd8d3b57	-0.06896084
252	0x3d3f4d45	0.04670455
253	0xbc02335d	-0.007946816
254	0x3d4ae3cb	0.049533647
255	0x3d87a74b	0.066237055

layer3.conv.bias f4 [32]
0	0xbd12badb	-0.03582273
1	0xbbf5d897	-0.007502626
2	0xbc7bb387	-0.015362627
3	0xbd1814ce	-0.037129216
4	0xbbff7e92	-0.007797071
5	0xbb3570d9	-0.002768567
6	0x3da7a6c9	0.081861086
7	0xbd9ebd5b	-0.077509604
8	0x3d9f325e	0.07773279
9	0x3da00aee	0.07814585
10	0x3d51ee7c	0.051252827
11	0xbdaa6dcb	-0.083217226
12	0xbc9800d4	-0.018555082
13	0xbce0f2c9	-0.027459519
14	0x3d167fa4	0.03674282
15	0x3d3d9d35	0.046292502
16	0xbacb1af2	-0.0015495701
17	0x3c536336	0.012902072
18	0x3cac1836	0.021007638
19	0x3b7a9f9c	0.0038242107
20	0xbd935609	-0.07194144
21	0xbd3a8853	-0.045540165
22	0xbd895d8b	-0.06707295
23	0xbca3680e	-0.019947078
24	0x3d02c246	0.031923555
25	0x3dac802f	0.084228866
26	0xbba412e6	-0.0050071357
27	0xbcd992b3	-0.02655921
28	0x3d2b7a0e	0.041864447
29	0x3d3c80f9	0.046021435
30	0x3d9f81d3	0.07788434
31	0xbc810c21	-0.015752854

layer3.bn.weight f4 [32]
0	0x3f80314e	1.0015047
1	0x3f7ecce7	0.99531406
2	0x3f807c9c	1.0038028
3	0x3f804c76	1.0023334
4	0x3f804c7c	1.0023341
5	0x3f81e7ff	1.0148925
6	0x3f7f17f7	0.9964594
7	0x3f7e529d	0.9934481
8	0x3f7e29c6	0.9928249
9	0x3f817305	1.0113226
10	0x3f7d24e3	0.9888441
11	0x3f7dd812	0.9915782
12	0x3f7ede41	0.9955788
13	0x3f7ee864	0.9957335
14	0x3f8101f5	1.0078722
15	0x3f7eb058	0.9948783
16	0x3f80ed12	1.0072348
17	0x3f7f1219	0.9963699
18	0x3f80149b	1.0006288
19	0x3f7eea1c	0.9957597
20	0x3f8107fe	1.0080564
21	0x3f7eab24	0.9947989
22	0x3f7dad67	0.99092716
23	0x3f812425	1.0089155
24	0x3f7ff39c	0.99981093
25	0x3f806d8e	1.0033433
26	0x3f7f7c31	0.99798876
27	0x3f8016ec	1.0006995
28	0x3f7fed86	0.99971807
29	0x3f80d3b6	1.0064609
30	0x3f7f43de	0.9971293
31	0x3f81e48b	1.0147871

layer3.bn.bias f4 [32]
0	0xbba75860	-0.0051069707
1	0xbbd46f74	-0.006483013
2	0x3c3de95c	0.011591282
3	0xbb4fbe3d	-0.0031699084
4	0x3b6b1006	0.0035867705
5	0x3c130227	0.008972681
6	0xbbdea997	-0.006795119
7	0xba4c250c	-0.0007787503
8	0xbb24a764	-0.0025124187
9	0x3b68ddca	0.0035532587
10	0x3a246084	0.00062704855
11	0xbaf704f2	-0.0018846078
12	0x3b63578b	0.003468963
13	0xbad55091	-0.0016274621
14	0x3c090a86	0.008364325
15	0x3ab156d8	0.001352991
16	0x3c1ac3ef	0.009446128
17	0x3be6e973	0.0070468723
18	0xbc4b226a	-0.012398342
19	0x3b77589a	0.003774202
20	0x3be3e564	0.0069548357
21	0xba4a2f4b	-0.00077127357
22	0xbc032701	-0.008004905
23	0x3c102489	0.008797773
24	0x3c03c09b	0.008041526
25	0x3c09fe55	0.008422454
26	0x39a623aa	0.0003168856
27	0x3bdf3ad1	0.0068124314
28	0xbbd3b530	-0.006460808
29	0x3bc56bda	0.00602482
30	0x3bb10c9e	0.0054031154
31	0x3bd88155	0.0066072145

layer3.bn.running_mean f4 [32]
0	0xbf4b28e2	-0.7935926
1	0x3f0c01b3	0.5469009
2	0x3e7c4b07	0.24637996
3	0x3f68b5ca	0.9090239
4	0xbf268d66	-0.65059507
5	0x3ea77ca1	0.32712272
6	0x3ef02693	0.4690443
7	0xbeac523d	-0.33656493
8	0xbf110ade	-0.56657207
9	0xbe96e26a	-0.29469615
10	0xbe933e8e	-0.28758663
11	0xbf28d935	-0.6595643
12	0xbddfc1ab	-0.10925611
13	0x3e20092f	0.15628503
14	0xbf863b5e	-1.0486867
15	0x3f04bdd0	0.5185213
16	0x3f1e9d4e	0.6195878
17	0x3f8093f4	1.0045152
18	0x3f2f4f28	0.6848016
19	0x3e26dadd	0.16294427
20	0x3fc41eb9	1.5321876
21	0xbf8d3e98	-1.1034727
22	0xbf254842	-0.6456338
23	0x3f883e0a	1.0643933
24	0xbf87fdad	-1.0624291
25	0xbf31b42d	-0.6941555
26	0x3dbee8dc	0.09321758
27	0x3f243b56	0.6415304
28	0xbf7c1762	-0.9847318
29	0x3e543e1c	0.20726818
30	0x3f1284e0	0.57234
31	0xbefd945c	-0.49527252

layer3.bn.running_var f4 [32]
0	0x3f743bd8	0.95403814
1	0x3e83d974	0.2575184
2	0x3edec42b	0.4350904
3	0x3f0cb1fe	0.54959095
4	0x3ec3212d	0.3811125
5	0x3e927005	0.2860109
6	0x3e8a42ef	0.2700419
7	0x3e223a4e	0.15842554
8	0x3eb3a87b	0.35089478
9	0x3f0392fd	0.5139616
10	0x3e792c72	0.24333361
11	0x3efc0a18	0.4922645
12	0x3eaf6384	0.34255612
13	0x3e9b059d	0.3027772
14	0x3eba474e	0.36382526
15	0x3e75de5d	0.24010606
16	0x3e659c18	0.22422826
17	0x3ed147d2	0.40875107
18	0x3f35859b	0.7090699
19	0x3e963f52	0.29345185
20	0x3ed15637	0.4088609
21	0x3e9cc6b1	0.3062034
22	0x3ebfe89f	0.37482163
23	0x3e47c33c	0.1950807
24	0x3ea3a2c1	0.3196011
25	0x3e6faf7c	0.23406786
26	0x3e34f49e	0.17671439
27	0x3ead6119	0.33863142
28	0x3eee9264	0.46596062
29	0x3e53a945	0.2067004
30	0x3e9be4d4	0.3044802
31	0x3e92af05	0.28649154

layer4.conv.weight f4 [32, 32, 3, 3]
0	0x3c2419da	0.010015929
1	0x3cc7d657	0.024394197
2	0x3d10adca	0.03532199
3	0xbd71f7fa	-0.05907438
4	0xbc717191	-0.014736549
5	0x3d4b2dce	0.04960423
6	0xbd2ff677	-0.042959657
7	0xbd1a3b96	-0.03765448
8	0xbc69d982	-0.014273049
9	0x3c4b4b95	0.012408157
10	0x3cd6c234	0.02621565
11	0x3bfe2ce9	0.0077568186
12	0xbb56f025	-0.0032796946
13	0x3cbf0d44	0.023321755
14	0x3a9b08ba	0.0011828162
15	0x3d195fbc	0.037444815
16	0xbd0c2d4d	-0.03422289
17	0x3cbdd387	0.023172153
18	0x3a068a36	0.00051322894
19	0xbd38d3ab	-0.045123737
20	0xbc6ee3a6	-0.014580643
21	0xbd3728db	-0.044716697
22	0x3d036ba9	0.032085095
23	0x3d40a717	0.04703435
24	0xbd01b830	-0.031669796
25	0xbd7a7eb1	-0.06115598
26	0xbd7cb6fb	-0.06169794
27	0xbd68b8bf	-0.056816813
28	0xbcfcfce5	-0.030882308
29	0xbd269345	-0.04066779
30	0x3c87bddc	0.016570024
31	0xbd5775bf	-0.052602526
32	0xbcef1390	-0.029184133
33	0x3ca2d0b8	0.019874915
34	0x3cb6ea57	0.022328539
35	0xbd08ae20	-0.033369184
36	0x3ca4b00f	0.020103483
37	0x3d24b379	0.04021022
38	0xbac1d4b6	-0.0014788124
39	0x3d66687a	0.05625198
40	0x3c844ee4	0.0161509
41	0x3d216062	0.03939856
42	0x3d3b8d42	0.04578901
43	0x3bd136df	0.006384715
44	0xbd00c9b6	-0.031442367
45	0xbb08aaf9	-0.002085386
46	0xbc6fdb1b	-0.014639641
47	0x3b8549f6	0.0040676547
48	0xbc5e5985	-0.013571148
49	0x3d4bc1e9	0.049745474
50	0x3c86f458	0.016473934
51	0x3d02c781	0.031928543
52	0xbcc744f6	-0.024324875
53	0x3d23bea5	0.039976735
54	0x3c9796fa	0.018504608
55	0x3d35a5ce	0.044347577
56	0x3d5a16e7	0.053244498
57	0xbca04224	-0.019562788
58	0xbbe4a9a1	-0.006978229
59	0x3ce15eca	0.02751102
60	0xbd1bdef0	-0.038054407
61	0xbcbd41ab	-0.023102602
62	0x3b57ac30	0.0032909028
63	0xbc58ce9c	-0.013232853
64	0x3c92daea	0.017926652
65	0x3d10b774	0.035331205
66	0xbd141276	-0.03615042
67	0xbd516a28	-0.05112663
68	0xbd54d9fe	-0.051965706
69	0x3ce56369	0.028001504
70	0x3cfced3a	0.030874837
71	0xbb294652	-0.0025829268
72	0x3ce01182	0.027352098
73	0x3c326601	0.010888577
74	0x3cc5c3e4	0.02414126
75	0x3c78f301	0.015194655
76	0xbcdf1796	-0.027232926
77	0xbcb7dfcc	-0.022445582
78	0x3d213efc	0.039366707
79	0xbcfa8756	-0.030582111
80	0xbd2b0146	-0.04174926
81	0x3bd6a67f	0.0065506096
82	0xbb700a42	-0.0036627208
83	0x3d25d52d	0.040486503
84	0x3cf7aeb1	0.030234667
85	0x3d58b6f1	0.05290884
86	0x3d01a5d2	0.03165228
87	0x3c86960a	0.016428966
88	0x3d28d575	0.041219193
89	0x3cc83bae	0.02444252
90	0xbb4f992c	-0.003167699
91	0xbd405c1d	-0.046962846
92	0xbc81a054	-0.01582352
93	0xbcad5034	-0.021156408
94	0xbd3d144e	-0.046161942
95	0xbcf51668	-0.02991791
96	0xbd27ff21	-0.041014794
97	0x3c9ff333	0.019525146
98	0x3d89273a	0.06696935
99	0xbc89d0e4	-0.01682324
100	0xbc45f6c0	-0.012082756
101	0x3d1b5f82	0.03793288
102	0xbca49e93	-0.020095145
103	0x3c8274d5	0.01592485
104	0x3ba62405	0.005070212
105	0xbd2e5ee4	-0.042570964
106	0x3cac2e3f	0.021018146
107	0xbc8bc257	-0.017060442
108	0xbc9060b5	-0.017624239
109	0x3d34ee85	0.044172782
110	0x3c6fa6e6	0.014627194
111	0xbd903c4d	-0.070427515
112	0xbd6399a0	-0.05556643
113	0xbd8f6874	-0.07002345
114	0x3d444b7f	0.04792356
115	0x3c95ae1e	0.018271502
116	0xbd52d35a	-0.05147109
117	0xbc61fbd3	-0.01379295
118	0x3c153d04	0.009108786
119	0xbbeca855	-0.007222215
120	0xbbd610ec	-0.006532779
121	0xbd0a8424	-0.033817425
122	0x3cad6504	0.021166332
123	0x3ae2ea58	0.0017312272
124	0x3d336986	0.043801807
125	0xbd441740	-0.047873735
126	0x3d28f2c6	0.04124715
127	0x3d6c5373	0.05769677
128	0x3d6d0400	0.057865143
129	0xbd31a703	-0.043372165
130	0x3d511aec	0.051051065
131	0x3bc30814	0.0059518907
132	0xbd8bb91d	-0.06822417
133	0x3c8ef817	0.017452283
134	0x3d6e1b21	0.05813134
135	0x3c038b43	0.008028808
136	0x3bad0c27	0.0052809897
137	0xbd881b66	-0.06645851
138	0xbc2bb17f	-0.01047933
139	0xbd3ef264	-0.04661788
140	0x3cf6c471	0.030122967
141	0xbcf3bf5f	-0.029754339
142	0x3cd60f8a	0.026130456
143	0xbd2d3de1	-0.04229534
144	0xba522240	-0.0008015968
145	0x3d4e6984	0.050393596
146	0xbbd28207	-0.006424192
147	0x3d29943e	0.04140114
148	0xbc82f9df	-0.015988288
149	0xbd2774e4	-0.04088296
150	0x3d0c4b79	0.034251664
151	0xbd1854ad	-0.037190128
152	0x3cc594ac	0.024118744
153	0xbc77aeb9	-0.015117341
154	0xbcc67b43	-0.024228698
155	0x3cda1415	0.026620904
156	0xbc93308a	-0.017967481
157	0x3d1761eb	0.036958616
158	0x3be7ba05	0.007071736
159	0xbcb65ab4	-0.022260047
160	0x3cb93e36	0.022612672
161	0x3d64d568	0.055867583
162	0x3d42a526	0.04752078
163	0xbd0b522c	-0.034013912
164	0xbc41a400	-0.011818886
165	0x3bf788af	0.0075541358
166	0x3c7e7072	0.015529739
167	0x3d375d7a	0.04476688
168	0xbcc5d857	-0.02415101
169	0x3bae41bb	0.0053178943
170	0x3d5f1ebe	0.054472677
171	0x3d051519	0.032490823
172	0xbc54b972	-0.012983667
173	0xbc51a416	-0.012795469
174	0x3ca946a5	0.020663569
175	0xbd421dc0	-0.047391653
176	0xbd098b78	-0.033580273
177	0xbd7a4717	-0.061102953
178	0x3c7ffe66	0.015624618
179	0xbc41295a	-0.011789644
180	0xbd0487a5	-0.032355923
181	0xbb60c028	-0.0034294222
182	0x3d63ac8f	0.055584487
183	0x3d21c1d3	0.039491486
184	0xbd2b390e	-0.04180246
185	0x3cb99384	0.022653349
186	0x3ce51137	0.02796231
187	0xbcfc1526	-0.030771803
188	0xbd2d2b4a	-0.04227761
189	0x3baf7241	0.0053541963
190	0x3cf363ec	0.029710732
191	0xbcb6976a	-0.022288997
192	0xbc010733	-0.007875252
193	0xbc7da685	-0.015481596
194	0x3d7d4484	0.06183292
195	0x3c99be61	0.018767538
196	0xbc2989a9	-0.010347762
197	0xbd45293b	-0.048135024
198	0xbcd7bd5e	-0.026335414
199	0x3baf31bb	0.0053465045
200	0xbd1cf7ad	-0.03832214
201	0x3d457e3b	0.048216086
202	0xbd76645a	-0.060154296
203	0x3a1f223f	0.0006070472
204	0x3d1ea2e7	0.038729575
205	0x3cfad1d9	0.030617641
206	0xbd52b0a1	-0.051437978
207	0xbd1ed2d9	-0.0387753
208	0xbd4217a5	-0.04738583
209	0xbd15b7fd	-0.036552418
210	0xbd820d08	-0.06350142
211	0x3c981bb1	0.018567892
212	0xbd22e5b4	-0.039769843
213	0x3c88eb43	0.016713744
214	0x3c921ae7	0.017835094
215	0x3d417ff7	0.047241177
216	0xbd600dcd	-0.05470066
217	0xbd4ed8ba	-0.050499655
218	0xbd0ad25e	-0.033892028
219	0x3d1cc457	0.03827318
220	0x3d41f36d	0.04735129
221	0x3d47b8c0	0.048760176
222	0x3d463a72	0.04839558
223	0xbcc84fb5	-0.02445207
224	0x3d71c2cf	0.059023675
225	0x3cf14fc9	0.02945699
226	0xbaf7e2c5	-0.0018912187
227	0xbd67b6c0	-0.05657077
228	0xbd709d1b	-0.058743577
229	0x3d24de4f	0.040251072
230	0x3c44ed8f	0.012019529
231	0xbc2392f4	-0.009983767
232	0x3d2ad48d	0.04170661
233	0xbd5499cd	-0.05190449
234	0xbc999d61	-0.018751802
235	0xbcbd25ad	-0.023089254
236	0x3d58af96	0.052901827
237	0x3d66d5ed	0.05635636
238	0xbd1f52e8	-0.038897425
239	0xbd2ba863	-0.041908633
240	0xbceac9aa	-0.028660614
241	0x3d1a6073	0.037689637
242	0xbd51e5be	-0.05124449
243	0x3d8c763a	0.068584874
244	0x3d4ea216	0.050447546
245	0x3d81a87e	0.063309655
246	0x3b98dd6e	0.0046650684
247	0x3bf5869d	0.007492854
248	0xbd515692	-0.05110795
249	0x3d67601e	0.05648815
250	0x3d4ea193	0.050447058
251	0xbccbbb12	-0.024869476
252	0xbbdaf41f	-0.0066819335
253	0xbd3334b2	-0.043751426
254	0x3c02cfc1	0.007984103
255	0xbd10a8a0	-0.035317063

layer4.conv.bias f4 [32]
0	0x3d50bee5	0.0509633
1	0xbcb6f36f	-0.022332875
2	0x3c43fbfa	0.011961931
3	0x3d5eb642	0.054373033
4	0xbd55f663	-0.052236926
5	0xbd1f9cda	-0.038967945
6	0x3c4de8c7	0.0125677055
7	0x3d43d65c	0.04781185
8	0x3cbbf988	0.022946134
9	0xbc6422d3	-0.013924318
10	0x3cb873c7	0.022516144
11	0xbd06f7bd	-0.032951105
12	0xbd02cf25	-0.03193583
13	0xbcc1aa76	-0.023640852
14	0x3d40f768	0.047110945
15	0xbd1a4d8b	-0.037671607
16	0xbcc22307	-0.023698343
17	0x3b1f0875	0.0024266515
18	0xbc7d6f3e	-0.015468417
19	0x3cee4f9e	0.029090699
20	0xbc9b9e54	-0.018996395
21	0xbceab73f	-0.028651832
22	0x3d017f49	0.03161553
23	0x3ba27228	0.004957456
24	0x3b3c2245	0.002870695
25	0xbcf2bb59	-0.02963035
26	0x3c9e86b2	0.019351337
27	0x3c84dbfc	0.016218178
28	0x3cc42879	0.02394508
29	0x3caf6449	0.021410124
30	0x3d284b0c	0.041087195
31	0xbcb553f8	-0.022134766

layer4.bn.weight f4 [32]
0	0x3f7f2581	0.996666
1	0x3f8154a4	1.0103955
2	0x3f80d42a	1.0064747
3	0x3f8079dc	1.0037189
4	0x3f80cd97	1.0062741
5	0x3f7feec0	0.9997368
6	0x3f817b56	1.0115764
7	0x3f7befab	0.9841258
8	0x3f821210	1.0161762
9	0x3f808305	1.0039984
10	0x3f7fb64b	0.9988753
11	0x3f8119d2	1.0086005
12	0x3f7c3bfd	0.98529035
13	0x3f7f96c6	0.99839437
14	0x3f80b551	1.0055333
15	0x3f7d7eb6	0.9902147
16	0x3f80e04b	1.0068449
17	0x3f8047cf	1.0021914
18	0x3f8038dd	1.0017353
19	0x3f7e1598	0.992517
20	0x3f7def9d	0.99193746
21	0x3f7e5f20	0.993639
22	0x3f80e409	1.0069591
23	0x3f7c69ee	0.98599136
24	0x3f7c2bf2	0.98504555
25	0x3f7f027d	0.9961317
26	0x3f81bc1c	1.0135531
27	0x3f7e0f16	0.9924177
28	0x3f7f0594	0.99617887
29	0x3f815976	1.0105426
30	0x3f7f6a88	0.9977193
31	0x3f7d01cb	0.9883086

layer4.bn.bias f4 [32]
0	0xbb9078ab	-0.004408916
1	0x3b9a402e	0.004707358
2	0xbc407ad9	-0.011748039
3	0x3b13124f	0.0022441333
4	0xbb7f1bc0	-0.0038926452
5	0x3b268ce5	0.002541357
6	0x3c2cf462	0.010556312
7	0xbc736b4c	-0.014857125
8	0x3c0f4748	0.008745022
9	0xbad74420	-0.0016423501
10	0x3bb79fee	0.005603782
11	0x3bbe7831	0.005812668
12	0xbc8fe336	-0.017564397
13	0x3c0103ff	0.007874488
14	0xbacda871	-0.0015690458
15	0xbbd13e8b	-0.0063856295
16	0x3bc897a4	0.0061215926
17	0x3c0c9cf8	0.008582346
18	0xbba4b580	-0.0050265193
19	0xbbc61558	-0.006045025
20	0xbc3a818e	-0.011383427
21	0x3acb40b8	0.0015506959
22	0x3b8d9c89	0.004321639
23	0xbc2e5e4b	-0.010642598
24	0xbc7cf748	-0.015439816
25	0xbbc796ee	-0.0060909903
26	0x3c83fbfb	0.016111365
27	0xbc809613	-0.015696561
28	0x39951616	0.0002843595
29	0xb95fb45d	-0.00021334128
30	0xbc260dbf	-0.010135113
31	0xbb33cbab	-0.0027434628

layer4.bn.running_mean f4 [32]
0	0xbd851276	-0.06497662
1	0x3f26fea1	0.6523228
2	0x3f4798ca	0.7796751
3	0x3fca335d	1.5796925
4	0x3f44c616	0.76864755
5	0x3f2577b7	0.64635795
6	0xbe685393	-0.22688131
7	0x3f5cf3c2	0.86309445
8	0x3f961c6c	1.1727424
9	0x3e0ea37e	0.13929555
10	0x3f226e87	0.634499
11	0x3ef45a3a	0.47725087
12	0xbf95c4b3	-1.1700653
13	0xbf345d30	-0.7045469
14	0xbf21bdb7	-0.63180107
15	0xbe125fe5	-0.14294393
16	0xbf99acb4	-1.200583
17	0xbe2bb1ff	-0.16767119
18	0xbed39a48	-0.41328645
19	0x3bf7acce	0.0075584417
20	0xbf3cba3e	-0.73721683
21	0xbf012118	-0.5044112
22	0x3db638f3	0.08897581
23	0xbf00bd17	-0.5028853
24	0xbf1dd6d3	-0.6165592
25	0xbf761a82	-0.961342
26	0xbb732b3e	-0.0037104632
27	0xbf659f78	-0.89696455
28	0xbf88bd7c	-1.0682826
29	0x3f3e12ab	0.74247235
30	0xbed704ea	-0.41995937
31	0x3d1fb47c	0.038990483

layer4.bn.running_var f4 [32]
0	0x3ee57818	0.44818187
1	0x3ea7eb4a	0.327967
2	0x3f20e209	0.628449
3	0x3eda11a6	0.4259159
4	0x3f0e4b91	0.55584055
5	0x3f1d1af1	0.61369234
6	0x3e83cd5f	0.25742623
7	0x3ea37136	0.3192231
8	0x3e741697	0.23836742
9	0x3e54647b	0.20741455
10	0x3ec2b7ad	0.38030759
11	0x3f052bf9	0.5202022
12	0x3f0d98bc	0.5531118
13	0x3e50d354	0.20393115
14	0x3ed787e9	0.4209588
15	0x3e51f8aa	0.20505014
16	0x3f05b849	0.5223432
17	0x3ed4eabe	0.41585344
18	0x3ea8db82	0.3297997
19	0x3ed78dd3	0.4210039
20	0x3efa34e5	0.4886848
21	0x3e94cd99	0.2906311
22	0x3e848f9c	0.25890815
23	0x3e9a526f	0.30141017
24	0x3e98be8c	0.29832876
25	0x3f226be9	0.6344591
26	0x3e89f86c	0.26947343
27	0x3ee284f6	0.44242066
28	0x3eefcccf	0.46835944
29	0x3ef17b5c	0.47164428
30	0x3ed51493	0.4161726
31	0x3e7a69a4	0.24454361
