models/best_model.ckpt (torch, 445538 bytes, 40 tensors)

melspec.spectrogram.window f4 [1024]
0.0 9.417534e-06 3.7640333e-05 8.46982e-05 0.00015059114 0.00023528934 0.0003388226 0.00046113133
0.00060227513 0.0007622242 0.0009409487 0.0011384785 0.0013547838 0.0015898645 0.0018436909 0.0021162927
0.0024076402 0.0027177036 0.0030465126 0.0033940375 0.0037602484 0.0041451156 0.0045486987 0.004970908
0.005411744 0.0058712065 0.0063492954 0.006845951 0.0073611736 0.007894963 0.00844726 0.009018064
0.009607345 0.010215104 0.01084131 0.011485934 0.0121489465 0.012830317 0.013530016 0.014248043
0.014984369 0.015738964 0.016511768 0.017302781 0.018111974 0.018939286 0.019784749 0.02064827
0.021529824 0.022429407 0.02334699 0.024282485 0.025235921 0.026207209 0.027196348 0.028203279
0.029227972 0.030270398 0.031330496 0.032408237 0.033503592 0.03461653 0.03574696 0.036894888
0.038060248 0.039242983 0.040443063 0.041660458 0.04289514 0.044146985 0.045416027 0.046702147
0.048005342 0.049325585 0.050662756 0.052016884 0.05338785 0.054775625 0.05618021 0.057601452
0.059039384 0.060493886 0.06196496 0.06345251 0.064956516 0.06647688 0.06801358 0.06956655
0.0711357 0.072721004 0.0743224 0.075939834 0.07757321 0.07922253 0.080887645 0.082568586
0.0842652 0.085977495 0.087705374 0.08944875 0.09120759 0.092981845 0.094771415 0.096576214
0.09839624 0.10023138 0.10208154 0.103946716 0.105826795 0.10772169 0.10963139 0.111555785
0.11349478 0.115448326 0.11741638 0.11939883 0.12139559 0.12340662 0.1254318 0.12747112
0.12952444 0.13159174 0.1336729 0.13576782 0.13787645 0.13999876 0.1421346 0.14428389
0.14644662 0.14862263 0.15081188 0.15301427 0.15522975 0.15745819 0.1596995 0.16195366
0.16422054 0.16650003 0.16879213 0.17109665 0.1734136 0.1757428 0.17808422 0.1804378
0.18280336 0.1851809 0.18757027 0.18997142 0.19238421 0.1948086 0.1972445 0.19969177
0.20215034 0.20462015 0.20710108 0.20959303 0.21209592 0.21460965 0.21713409 0.21966922
0.2222149 0.22477102 0.22733751 0.22991425 0.23250118 0.23509818 0.23770517 0.24032202
0.24294865 0.24558496 0.24823079 0.25088614 0.2535509 0.25622493 0.25890815 0.2616004
0.26430166 0.26701176 0.26973063 0.2724582 0.27519435 0.27793896 0.28069192 0.2834531
0.28622246 0.28899986 0.29178524 0.29457843 0.29737937 0.30018795 0.30300403 0.30582747
0.3086583 0.31149632 0.31434143 0.3171935 0.3200525 0.3229183 0.32579064 0.32866964
0.33155507 0.33444685 0.33734488 0.340249 0.34315917 0.34607518 0.34899703 0.35192457
0.35485768 0.35779625 0.36074018 0.36368936 0.3666436 0.36960295 0.37256718 0.3755362
0.37850994 0.38148823 0.38447094 0.38745803 0.3904494 0.39344487 0.39644432 0.3994477
0.40245488 0.40546566 0.40848005 0.4114979 0.41451907 0.41754347 0.42057097 0.42360145
0.42663476 0.42967087 0.43270966 0.43575096 0.43879467 0.4418407 0.44488895 0.4479392
0.45099142 0.45404553 0.45710137 0.46015882 0.46321777 0.46627808 0.46933964 0.4724024
0.47546616 0.47853088 0.4815964 0.48466262 0.48772943 0.49079663 0.49386424 0.49693206
00000000: 0000 0000 0000 1e37 00e0 1d38 00a0 b138
00000010: 00e8 1d39 00b8 7639 00a4 b139 00c4 f139
00000020: 00e2 1d3a 00d0 473a 00aa 763a 0039 953a
00000030: 0093 b13a 0063 d03a 00a8 f13a 80b1 0a3b
00000040: 80c9 1d3b 801b 323b 00a8 473b 806e 5e3b
00000050: 806e 763b c0d3 873b 400d 953b 00e3 a23b
00000060: 0055 b13b 4063 c03b c00d d03b 0054 e03b
00000070: 0036 f13b e059 013c 6066 0a3c 80c0 133c
00000080: 2068 1d3c 405d 273c c09f 313c 802f 3c3c
00000090: 600c 473c 4036 523c 00ad 5d3c a070 693c
000000a0: 0081 753c 00ef 803c b043 873c 90be 8d3c
000000b0: 905f 943c 9026 9b3c a013 a23c 9026 a93c
000000c0: 505f b03c e0bd b73c 3042 bf3c 10ec c63c
000000d0: 90bb ce3c 80b0 d63c e0ca de3c 900a e73c
000000e0: 806f ef3c a0f9 f73c 6854 003d 80be 043d
000000f0: 103b 093d 10ca 0d3d 686b 123d 181f 173d
00000100: 10e5 1b3d 40bd 203d a0a7 253d 28a4 2a3d
00000110: d0b2 2f3d 78d3 343d 2806 3a3d c04a 3f3d
00000120: 40a1 443d a009 4a3d c083 4f3d a80f 553d
00000130: 38ad 5a3d 685c 603d 381d 663d 80ef 6b3d
00000140: 48d3 713d 70c8 773d f8ce 7d3d 64f3 813d
00000150: ec07 853d 0825 883d b44a 8b3d e878 8e3d
00000160: 98af 913d c0ee 943d 5836 983d 5886 9b3d
00000170: b4de 9e3d 6c3f a23d 6ca8 a53d b819 a93d
00000180: 3c93 ac3d f814 b03d e09e b33d e830 b73d
00000190: 0ccb ba3d 446d be3d 8417 c23d c0c9 c53d
000001a0: f883 c93d 1c46 cd3d 2010 d13d 04e2 d43d
000001b0: b8bb d83d 309d dc3d 6c86 e03d 5c77 e43d
000001c0: f46f e83d 2c70 ec3d 0078 f03d 6087 f43d
000001d0: 409e f83d 9cbc fc3d 3271 003e ca87 023e
000001e0: 0ea2 043e fcbf 063e 8ce1 083e b806 0b3e
000001f0: 7c2f 0d3e d65b 0f3e bc8b 113e 28bf 133e
00000200: 1af6 153e 8830 183e 6e6e 1a3e c6af 1c3e
00000210: 8cf4 1e3e b83c 213e 4488 233e 2ed7 253e
00000220: 6e29 283e fc7e 2a3e d8d7 2c3e f633 2f3e
00000230: 5693 313e ecf5 333e b65b 363e b0c4 383e
00000240: ce30 3b3e 10a0 3d3e 6c12 403e de87 423e
00000250: 5e00 453e e87b 473e 76fa 493e 007c 4c3e
00000260: 8000 4f3e f287 513e 4e12 543e 8e9f 563e
00000270: ac2f 593e a2c2 5b3e 6658 5e3e f8f0 603e
00000280: 4e8c 633e 602a 663e 2acb 683e a46e 6b3e
00000290: ca14 6e3e 94bd 703e fc68 733e fa16 763e
000002a0: 88c7 783e a07a 7b3e 3630 7e3e 2674 803e
000002b0: 6cd1 813e ea2f 833e 9c8f 843e 7df0 853e
000002c0: 8c52 873e c4b5 883e 221a 8a3e a47f 8b3e
000002d0: 46e6 8c3e 044e 8e3e dab6 8f3e c420 913e
000002e0: c08b 923e caf7 933e e064 953e fcd2 963e
000002f0: 1c42 983e 3cb2 993e 5823 9b3e 6b95 9c3e
00000300: 7608 9e3e 727c 9f3e 5cf1 a03e 3067 a23e
00000310: ecdd a33e 8c55 a53e 08ce a63e 6347 a83e
00000320: 96c1 a93e 9e3c ab3e 78b8 ac3e 1e35 ae3e
00000330: 8fb2 af3e c430 b13e bdaf b23e 752f b43e
00000340: e8af b53e 1231 b73e f0b2 b83e 7e35 ba3e
00000350: b6b8 bb3e 993c bd3e 20c1 be3e 4846 c03e
00000360: 0ecc c13e 6d52 c33e 60d9 c43e e660 c63e
00000370: fce8 c73e 9b71 c93e c0fa ca3e 6984 cc3e
00000380: 910e ce3e 3299 cf3e 4c24 d13e daaf d23e
00000390: d83b d43e 42c8 d53e 1455 d73e 4ae2 d83e
000003a0: df6f da3e d2fd db3e 1f8c dd3e c01a df3e
000003b0: b2a9 e03e f238 e23e 7cc8 e33e 4958 e53e
000003c0: 59e8 e63e a878 e83e 3109 ea3e f099 eb3e
000003d0: e12a ed3e 00bc ee3e 494d f03e bade f13e
000003e0: 4d70 f33e 0002 f53e ce93 f63e b325 f83e
000003f0: acb7 f93e b249 fb3e c6db fc3e e16d fe3e

melspec.mel_scale.fb f4 [513, 128]
-0.0 0.0 0.0 0.0 0.0 0.0 0.0 0.0
0.0 0.0 0.0 0.0 0.0 0.0 0.0 0.0
0.0 0.0 0.0 0.0 0.0 0.0 0.0 0.0
0.0 0.0 0.0 0.0 0.0 0.0 0.0 0.0
0.0 0.0 0.0 0.0 0.0 0.0 0.0 0.0
0.0 0.0 0.0 0.0 0.0 0.0 0.0 0.0
0.0 0.0 0.0 0.0 0.0 0.0 0.0 0.0
0.0 0.0 0.0 0.0 0.0 0.0 0.0 0.0
0.0 0.0 0.0 0.0 0.0 0.0 0.0 0.0
0.0 0.0 0.0 0.0 0.0 0.0 0.0 0.0
0.0 0.0 0.0 0.0 0.0 0.0 0.0 0.0
0.0 0.0 0.0 0.0 0.0 0.0 0.0 0.0
0.0 0.0 0.0 0.0 0.0 0.0 0.0 0.0
0.0 0.0 0.0 0.0 0.0 0.0 0.0 0.0
0.0 0.0 0.0 0.0 0.0 0.0 0.0 0.0
0.0 0.0 0.0 0.0 0.0 0.0 0.0 0.0
0.6158249 0.38417512 0.0 0.0 0.0 0.0 0.0 0.0
0.0 0.0 0.0 0.0 0.0 0.0 0.0 0.0
0.0 0.0 0.0 0.0 0.0 0.0 0.0 0.0
0.0 0.0 0.0 0.0 0.0 0.0 0.0 0.0
0.0 0.0 0.0 0.0 0.0 0.0 0.0 0.0
0.0 0.0 0.0 0.0 0.0 0.0 0.0 0.0
0.0 0.0 0.0 0.0 0.0 0.0 0.0 0.0
0.0 0.0 0.0 0.0 0.0 0.0 0.0 0.0
0.0 0.0 0.0 0.0 0.0 0.0 0.0 0.0
0.0 0.0 0.0 0.0 0.0 0.0 0.0 0.0
0.0 0.0 0.0 0.0 0.0 0.0 0.0 0.0
0.0 0.0 0.0 0.0 0.0 0.0 0.0 0.0
0.0 0.0 0.0 0.0 0.0 0.0 0.0 0.0
0.0 0.0 0.0 0.0 0.0 0.0 0.0 0.0
0.0 0.0 0.0 0.0 0.0 0.0 0.0 0.0
0.0 0.0 0.0 0.0 0.0 0.0 0.0 0.0
00000000: 0000 0080 0000 0000 0000 0000 0000 0000
00000010: 0000 0000 0000 0000 0000 0000 0000 0000
00000020: 0000 0000 0000 0000 0000 0000 0000 0000
00000030: 0000 0000 0000 0000 0000 0000 0000 0000
00000040: 0000 0000 0000 0000 0000 0000 0000 0000
00000050: 0000 0000 0000 0000 0000 0000 0000 0000
00000060: 0000 0000 0000 0000 0000 0000 0000 0000
00000070: 0000 0000 0000 0000 0000 0000 0000 0000
00000080: 0000 0000 0000 0000 0000 0000 0000 0000
00000090: 0000 0000 0000 0000 0000 0000 0000 0000
000000a0: 0000 0000 0000 0000 0000 0000 0000 0000
000000b0: 0000 0000 0000 0000 0000 0000 0000 0000
000000c0: 0000 0000 0000 0000 0000 0000 0000 0000
000000d0: 0000 0000 0000 0000 0000 0000 0000 0000
000000e0: 0000 0000 0000 0000 0000 0000 0000 0000
000000f0: 0000 0000 0000 0000 0000 0000 0000 0000
00000100: 0000 0000 0000 0000 0000 0000 0000 0000
00000110: 0000 0000 0000 0000 0000 0000 0000 0000
00000120: 0000 0000 0000 0000 0000 0000 0000 0000
00000130: 0000 0000 0000 0000 0000 0000 0000 0000
00000140: 0000 0000 0000 0000 0000 0000 0000 0000
00000150: 0000 0000 0000 0000 0000 0000 0000 0000
00000160: 0000 0000 0000 0000 0000 0000 0000 0000
00000170: 0000 0000 0000 0000 0000 0000 0000 0000
00000180: 0000 0000 0000 0000 0000 0000 0000 0000
00000190: 0000 0000 0000 0000 0000 0000 0000 0000
000001a0: 0000 0000 0000 0000 0000 0000 0000 0000
000001b0: 0000 0000 0000 0000 0000 0000 0000 0000
000001c0: 0000 0000 0000 0000 0000 0000 0000 0000
000001d0: 0000 0000 0000 0000 0000 0000 0000 0000
000001e0: 0000 0000 0000 0000 0000 0000 0000 0000
000001f0: 0000 0000 0000 0000 0000 0000 0000 0000
00000200: b3a6 1d3f 9ab2 c43e 0000 0000 0000 0000
00000210: 0000 0000 0000 0000 0000 0000 0000 0000
00000220: 0000 0000 0000 0000 0000 0000 0000 0000
00000230: 0000 0000 0000 0000 0000 0000 0000 0000
00000240: 0000 0000 0000 0000 0000 0000 0000 0000
00000250: 0000 0000 0000 0000 0000 0000 0000 0000
00000260: 0000 0000 0000 0000 0000 0000 0000 0000
00000270: 0000 0000 0000 0000 0000 0000 0000 0000
00000280: 0000 0000 0000 0000 0000 0000 0000 0000
00000290: 0000 0000 0000 0000 0000 0000 0000 0000
000002a0: 0000 0000 0000 0000 0000 0000 0000 0000
000002b0: 0000 0000 0000 0000 0000 0000 0000 0000
000002c0: 0000 0000 0000 0000 0000 0000 0000 0000
000002d0: 0000 0000 0000 0000 0000 0000 0000 0000
000002e0: 0000 0000 0000 0000 0000 0000 0000 0000
000002f0: 0000 0000 0000 0000 0000 0000 0000 0000
00000300: 0000 0000 0000 0000 0000 0000 0000 0000
00000310: 0000 0000 0000 0000 0000 0000 0000 0000
00000320: 0000 0000 0000 0000 0000 0000 0000 0000
00000330: 0000 0000 0000 0000 0000 0000 0000 0000
00000340: 0000 0000 0000 0000 0000 0000 0000 0000
00000350: 0000 0000 0000 0000 0000 0000 0000 0000
00000360: 0000 0000 0000 0000 0000 0000 0000 0000
00000370: 0000 0000 0000 0000 0000 0000 0000 0000
00000380: 0000 0000 0000 0000 0000 0000 0000 0000
00000390: 0000 0000 0000 0000 0000 0000 0000 0000
000003a0: 0000 0000 0000 0000 0000 0000 0000 0000
000003b0: 0000 0000 0000 0000 0000 0000 0000 0000
000003c0: 0000 0000 0000 0000 0000 0000 0000 0000
000003d0: 0000 0000 0000 0000 0000 0000 0000 0000
000003e0: 0000 0000 0000 0000 0000 0000 0000 0000
000003f0: 0000 0000 0000 0000 0000 0000 0000 0000

layer1.conv.weight f4 [16, 1, 3, 3]
-0.15880786 0.28659892 0.18355444 0.22401424 -0.22898129 -0.19014128 0.15077852 -0.15252285
-0.23158275 0.05209029 -0.30313894 0.13774711 -0.26081955 0.0010472708 0.18292591 -0.018052096
0.3000195 0.17111367 0.1322861 -0.24656393 -0.30501562 -0.017606426 0.14976315 -0.025701046
0.23168287 0.044382665 -0.07105861 -0.105167076 0.25320342 0.058482192 -0.20413586 0.20773703
0.15927926 -0.056274764 0.29564628 -0.32673562 0.13125058 -0.17842762 0.093873575 -0.049140625
-0.014488174 -0.27182052 -0.010892729 0.1530841 0.17262758 0.19306098 -0.27424818 0.33142638
-0.08354153 0.25241745 -0.11681131 -0.24217287 0.29888117 0.25953895 -0.054620635 0.03767392
0.032572303 -0.058263037 0.3110594 -0.2976056 -0.1650122 0.2172723 -0.0008645551 0.02544823
0.17970629 0.12263203 -0.23273377 -0.050748557 -0.21017656 -0.14977014 0.10837459 0.26029208
0.28178877 -0.27847263 0.21260165 -0.06418971 0.11723517 -0.32511482 0.3225301 -0.3185025
-0.041567385 0.2476799 -0.14439687 0.016776113 0.21891727 -0.042126954 0.3208476 0.06705674
0.15779148 -0.01952827 -0.028671278 0.052528612 0.30480513 -0.25060445 -0.23762786 -0.16124178
0.14199068 0.18203098 0.17116849 -0.14398393 0.31551757 0.19872323 -0.13436335 0.19327733
0.09293848 0.027901296 -0.20607412 0.031476337 0.0600198 0.32034382 -0.19440272 0.06130686
-0.11167475 -0.06560788 -0.09766716 0.059456464 -0.09683092 -0.062204324 0.16845973 -0.060875047
-0.13920093 0.2936643 -0.2094901 0.1936647 -0.17946884 0.22989327 0.04693384 0.28840423
0.17074564 0.23759054 0.0908471 0.12694223 -0.124249876 0.21695036 0.16643085 0.17579968
0.27455088 -0.31291887 0.22871953 0.2541444 -0.15793718 0.31797016 -0.16484638 0.26179755
00000000: 879e 22be 18bd 923e b2f5 3b3e fd63 653e
00000010: 127a 6abe 65b4 42be af65 1a3e f32e 1cbe
00000020: 0724 6dbe a15c 553d 0735 9bbe 940d 0d3e
00000030: 248a 85be 9444 893a ee50 3b3e fde1 93bc
00000040: 289c 993e 6c38 2f3e 0276 073e 417b 7cbe
00000050: 022b 9cbe 5a3b 90bc 835b 193e 008b d2bc
00000060: 463e 6d3e 99ca 353d 2d87 91bd d661 d7bd
00000070: e1a3 813e 068b 6f3d fe08 51be 04b9 543e
00000080: 1a1a 233e 5e80 66bd f35e 973e e449 a7be
00000090: 8d66 063e bbb5 36be ca40 c03d ae47 49bd
000000a0: ce5f 6dbc 0f2c 8bbe 6b77 32bc 14c2 1c3e
000000b0: 49c5 303e c7b1 453e 426a 8cbe b8b0 a93e
000000c0: d217 abbd dc3c 813e c53a efbd 2afc 77be
000000d0: f406 993e 4ae2 843e e3b9 5fbd f84f 1a3d
000000e0: 896a 053d 39a5 6ebd 2d43 9f3e c35f 98be
000000f0: f5f8 28be a17c 5e3e 50a3 62ba ce78 d03c
00000100: ed04 383e 8026 fb3d c351 6ebe b8dd 4fbd
00000110: 8638 57be 585d 19be 7ff3 dd3d 0145 853e
00000120: 9e46 903e f793 8ebe 3fb4 593e e575 83bd
00000130: fe18 f03d 7375 a6be aa22 a53e c212 a3be
00000140: 9042 2abd cd9f 7d3e c6dc 13be 0f6e 893c
00000150: d92b 603e 508d 2cbd 2346 a43e 0b55 893d
00000160: 1794 213e c0f9 9fbc 07e0 eabc 3e28 573d
00000170: 6b0f 9c3e 3a4f 80be b854 73be 911c 25be
00000180: 0166 113e 5466 3a3e cb46 2f3e 8670 13be
00000190: 858b a13e 1a7e 4b3e 8c96 09be 7eea 453e
000001a0: 8856 be3d 4291 e43c 1805 53be 55ed 003d
000001b0: 52d7 753d 1b04 a43e 8211 47be e71c 7b3d
000001c0: bbb5 e4bd 6d5d 86bd b805 c8bd 9f88 733d
000001d0: 4a4f c6bd f6c9 7ebd b580 2c3e 1d58 79bd
000001e0: b08a 0ebe 2b5b 963e 9384 56be 0a50 463e
000001f0: aec6 37be 2469 6b3e b33d 403d b8a9 933e
00000200: f2d7 2e3e ef4a 733e 0b0e ba3d 25fd 013e
00000210: b876 febd 3c28 5e3e d96c 2a3e d504 343e
00000220: ef91 8c3e e736 a0be 7435 6a3e 371f 823e
00000230: 49ba 21be fccc a23e 7dcd 28be 540a 863e

layer1.conv.bias f4 [16]
0.012256044 0.20278668 -0.27863356 -0.19403328 0.29950792 0.31952298 0.2551731 -0.2012846
-0.011367944 -0.045928422 0.29411256 0.18005344 -0.17577006 -0.03826477 0.1341122 0.012269765
00000000: 93cd 483c 50a7 4f3e 0fa9 8ebe a9b0 46be
00000010: 1a59 993e 8498 a33e 0ca6 823e 8d1d 4ebe
00000020: 9d40 3abc 711f 3cbd ec95 963e ee5f 383e
00000030: 11fd 33be 85bb 1cbd b554 093e 2007 493c

layer1.bn.weight f4 [16]
0.997255 0.999473 0.99700075 1.001884 1.0014743 0.99148285 0.9943632 1.0006225
1.0017587 1.0101776 0.9905729 0.99131215 1.0110317 1.0049071 1.0098863 0.9943848
00000000: 1b4c 7f3f 76dd 7f3f 713b 7f3f bc3d 803f
00000010: 4f30 803f d2d1 7d3f 968e 7e3f 6614 803f
00000020: a139 803f 804d 813f 3096 7d3f a2c6 7d3f
00000030: 7d69 813f cca0 803f f443 813f 0190 7e3f

layer1.bn.bias f4 [16]
0.003944026 -0.00013295833 0.0032795675 0.00608648 -0.0014380865 -0.001285737 0.0026244395 -0.0023586745
0.0074600233 0.008150529 -0.014544127 0.007260811 0.004397108 0.008296913 0.0073299455 -0.010144795
00000000: e33c 813b bb6a 0bb9 03ee 563b 1871 c73b
00000010: 2d7e bcba 2d86 a8ba cafe 2b3b fe93 1abb
00000020: 3673 f43b cc89 053c 7d4a 6ebc 19ec ed3b
00000030: 9e15 903b c6ef 073c 0a30 f03b 5b36 26bc

layer1.bn.running_mean f4 [16]
0.01589011 0.19994448 -0.28382945 -0.18656419 0.29904422 0.32610095 0.25450715 -0.19113068
-0.007830861 -0.03722729 0.29882407 0.18647856 -0.17122322 -0.03916562 0.15385929 0.021600224
00000000: fa2b 823c 3fbe 4c3e 1852 91be af0a 3fbe
00000010: 531c 993e b4f6 a63e c34e 823e c3b7 43be
00000020: 034d 00bc a57b 18bd 78ff 983e 3cf4 3e3e
00000030: 2455 2fbe 216c 20bd 4a8d 1d3e f4f2 b03c

layer1.bn.running_var f4 [16]
0.06706764 0.12980011 0.07107008 0.114671804 0.02941831 0.34997433 0.029572563 0.042117756
0.06136104 0.5972932 0.07281472 0.16546421 0.034696165 0.07440444 1.2671397 0.71871954
00000000: c25a 893d 52ea 043e 318d 913d 0dd9 ea3d
00000010: abfe f03c d62f b33e 2942 f23c ab83 2c3d
00000020: b755 7b3d 35e8 183f e21f 953d 736f 293e
00000030: 911d 0e3d 5b61 983d a231 a23f 01fe 373f

layer2.conv.weight f4 [16, 16, 3, 3]
0.04882572 -0.006916596 0.018480496 -0.023829136 -0.045407794 0.08535813 -0.058388025 -0.044232406
0.0414433 0.038420953 0.020940306 0.078734845 -0.0015331099 -0.07915526 -0.03777814 -0.088795304
-0.049295567 -0.008103817 0.0641843 -0.042448618 -0.0047626034 -0.011064709 0.09652106 0.010867362
-0.034315035 0.03948297 -0.09417109 -0.07169926 -0.07250851 0.06254141 0.016421674 0.045264587
-0.023709962 -0.05534686 0.0688663 -0.018659579 -0.0065781293 0.064145066 0.075537525 -0.028837742
0.036969837 0.033081822 -0.06598443 -0.0048721763 0.048181724 0.06652692 -0.06767063 -0.05229545
-0.04118397 -0.05553573 -0.015170082 0.021664076 -0.046331994 0.08347295 0.029162902 -0.07468436
0.0037705742 0.007975584 -0.08984526 -0.021151632 -0.08539662 0.034234848 -0.026826303 0.045365073
-0.021733934 -0.021268884 -0.07424686 -0.06553302 0.0139305275 -0.08092185 0.07135564 0.011086341
0.0033171861 0.06134788 -0.029901654 -0.08476719 0.014919508 0.026350474 -0.07258527 -0.084593445
-0.025937779 0.03613092 0.0038138886 -0.058936186 0.014585832 0.07882206 -0.004449959 0.037972126
-0.00645246 0.050133716 2.4027497e-05 -0.0052697333 0.055761445 0.044495538 -0.041240077 -0.04028844
0.02827556 0.014721415 0.02495051 0.04876045 0.0033335935 -0.06541044 -0.08344042 0.046248425
-0.06271115 -0.07303556 0.031024178 -0.050410524 -0.07014737 0.07893048 0.07139616 0.06197954
0.06121108 0.004853285 0.07783575 0.044172227 0.0029476017 0.07589189 -0.03825504 0.07588055
0.054138523 0.0830128 -0.06679726 0.016630344 0.07486302 -0.052574623 -0.0629972 -0.007587624
-0.011010833 -0.017240152 -0.07187004 -0.07520044 0.013724521 -0.0627933 0.047987297 0.0063753705
0.07147378 0.054620434 -0.047036935 -0.033804756 0.031925887 -0.07645673 -0.009292335 -0.0779381
0.06824924 0.012560698 -0.026860667 -0.08839471 0.08402553 -0.017553452 -0.04785322 0.01158941
-0.010784026 -0.046825785 0.01906319 -0.06519279 -0.02656292 -0.06375997 0.014815943 0.01186418
0.07215197 -0.058982298 0.056213602 0.0037913464 -0.06876139 0.032824334 -0.08350986 0.07379113
0.07265836 9.7181335e-05 -0.03702311 0.063441716 -0.0093853595 -0.016943656 -0.030686272 0.086366735
0.036530524 -0.077447586 0.059356652 0.053593334 -0.008974594 -0.04565584 -0.035582334 0.0040625
0.016743485 0.061420176 0.06963248 0.056409612 -0.043583427 0.057239484 0.04954901 -0.07756849
-0.017914772 -0.0047680954 -0.05871892 -0.017285876 0.0007421799 -0.08367081 0.0034034734 -0.016189385
0.062248576 0.07499425 -0.0046957256 0.06461286 -0.003753944 0.024881933 -0.037507784 0.08508967
0.089655034 -0.050833616 -0.036998056 -0.024049366 0.06435506 0.08161202 -0.032984592 -0.023476886
-0.04520263 -0.0045008655 0.059889413 0.036454346 -0.06849757 -0.07984623 -0.059911914 -0.038846716
-0.06124075 -0.0033280537 0.021537708 0.00068762293 -0.040977035 0.026527595 0.059515364 -0.031806324
-0.047573768 -0.06929447 0.015518383 -0.033612166 0.011529384 0.059596866 -0.06713957 0.010914026
-0.068175636 -0.013535309 -0.056593705 0.04544157 0.025574626 -0.030784342 -0.02322845 0.045432363
0.03292821 0.004820878 -0.036705162 0.058853667 0.015944809 -0.041924845 -0.026401648 0.08735986
00000000: 7afd 473d 9da4 e2bb 6964 973c 5235 c3bc
00000010: 86fd 39bd 3ed0 ae3d 4828 6fbd 0a2d 35bd
00000020: 73c0 293d 4a5f 1d3d 018b ab3c bc3f a13d
00000030: a2f2 c8ba 271c a2bd 40bd 1abd 50da b5bd
00000040: 26ea 49bd dfc5 04bc 0f73 833d 9ade 2dbd
00000050: 9d0f 9cbb c148 35bc d5ac c53d 050d 323c
00000060: ec8d 0cbd e5b8 213d c6dc c0bd 10d7 92bd
00000070: 577f 94bd b615 803d bf86 863c 5c67 393d
00000080: 653b c2bc 64b3 62bd c609 8d3d f9db 98bc
00000090: 598d d7bb 7d5e 833d 6bb3 9a3d 213d ecbc
000000a0: af6d 173d ce80 073d d822 87bd c7a6 9fbb
000000b0: 335a 453d 443f 883d e696 8abd c133 56bd
000000c0: 86b0 28bd 6f79 63bd f08b 78bc dc78 b13c
000000d0: 9ec6 3dbd def3 aa3d 0ae7 ee3c 1df4 98bd
000000e0: bd1b 773b 06ac 023c cb00 b8bd 3046 adbc
000000f0: 6ce4 aebd d739 0c3d d6c2 dbbc bad0 393d
00000100: 5d0b b2bc 153c aebc bd0e 98bd 2d36 86bd
00000110: de3c 643c 5bba a5bd e822 923d 7ca3 353c
00000120: 2665 593b ea47 7b3d 50f4 f4bc 6c9a adbd
00000130: f470 743c f3dc d73c 96a7 94bd 543f adbd
00000140: 777b d4bc 04fe 133d 6ff2 793b 1267 71bd
00000150: 6af9 6e3c 766d a13d f6d0 91bb a988 1b3d
00000160: 286f d3bb 0359 4d3d a88e c937 baad acbb
00000170: 1d66 643d f440 363d 5beb 28bd 7e05 25bd
00000180: 26a2 e73c 1732 713c 0365 cc3c 0ab9 473d
00000190: 6b78 5a3b e9f5 85bd d0e2 aabd fd6e 3d3d
000001a0: b46e 80bd ab93 95bd 6b26 fe3c 447b 4ebd
000001b0: 6da9 8fbd 4ea6 a13d 2638 923d 42de 7d3d
000001c0: 78b8 7a3d 4e08 9f3b 5a68 9f3d f0ed 343d
000001d0: 8d2c 413b 356d 9b3d 51b1 1cbd 4367 9b3d
000001e0: 5bc0 5d3d 9d02 aa3d 00cd 88bd 5c3c 883c
000001f0: c851 993d 7d58 57bd ad04 81bd 9aa1 f8bb
00000200: c866 34bc 383b 8dbc 9930 93bd b002 9abd
00000210: d0dc 603c c699 80bd 548e 443d 7ce8 d03b
00000220: d860 923d adb9 5f3d cda9 40bd db76 0abd
00000230: b8c4 023d 5995 9cbd e13e 18bc 039e 9fbd
00000240: 42c6 8b3d 63cb 4d3c e70a dcbc 4908 b5bd
00000250: 9415 ac3d 42cc 8fbc bd01 44bd 82e1 3d3c
00000260: 7caf 30bc 65cc 3fbd 682a 9c3c cc83 85bd
00000270: 7b9a d9bc 9694 82bd 92be 723c fa61 423c
00000280: 69c4 933d 6c97 71bd 3c40 663d 3d78 783b
00000290: c6d2 8cbd cf72 063d 3807 abbd ce1f 973d
000002a0: e8cd 943d d5cd cb38 8ba5 17bd bbed 813d
000002b0: 0dc5 19bc 6ccd 8abc c761 fbbc 0be1 b03d
000002c0: 08a1 153d d79c 9ebd f61f 733d af84 5b3d
000002d0: 2d0a 13bc 9e01 3bbd c8be 11bd b81e 853b
000002e0: a229 893c b993 7b3d 799b 8e3d c40d 673d
000002f0: 8984 32bd f373 6a3d e7f3 4a3d 3adc 9ebd
00000300: 00c2 92bc af3d 9cbb 4083 70bd 1c9b 8dbc
00000310: da8e 423a 9a5b abbd cf0c 5f3b 9a9f 84bc
00000320: 5df8 7e3d 9696 993d 9ade 99bb bf53 843d
00000330: bb04 76bb 32d5 cb3c c3a1 19bd 7e43 ae3d
00000340: 0f9d b73d e936 50bd 468b 17bd 2d03 c5bc
00000350: 96cc 833d 3424 a73d da1a 07bd 9952 c0bc
00000360: 6526 39bd ff7b 93bb 9a4e 753d 2751 153d
00000370: 7448 8cbd 6c86 a3bd 3266 75bd bc1d 1fbd
00000380: 95d7 7abd 7a1b 5abb d96f b03c 9841 343a
00000390: 89d7 27bd 6650 d93c 62c6 733d 5947 02bd
000003a0: b6dc 42bd 42ea 8dbd d140 7e3c e9ac 09bd
000003b0: bee5 3c3c d81b 743d 7980 89bd bed0 323c
000003c0: ab9f 8bbd 33c3 5dbc cdce 67bd f120 3a3d
000003d0: e181 d13c 722f fcbc 9749 bebc 4917 3a3d
000003e0: bbdf 063d 75f8 9d3b 2758 16bd 8b10 713d
000003f0: b09e 823c 63b9 2bbd 4548 d8bc bae9 b23d

layer2.conv.bias f4 [16]
-0.039370686 0.06980477 0.069979504 0.064551055 0.068842165 0.0037787436 0.044282254 -0.04285359
0.011879327 -0.04432341 -0.0049422313 0.011710777 -0.06534864 -0.038077313 0.062703095 -0.051731173
00000000: 2843 21bd cef5 8e3d 6a51 8f3d 5833 843d
00000010: 1ffd 8c3d cca4 773b 4f61 353d 3f87 2fbd
00000020: 82a1 423c 778c 35bd 71f2 a1bb 8fde 3f3c
00000030: 82d5 85bd f5f6 1bbd 7b6a 803d 11e4 53bd

layer2.bn.weight f4 [16]
0.99941427 0.9991677 1.0022455 0.9870962 0.99679154 0.99792963 0.9966913 1.0040839
1.0068045 1.0041937 1.0060989 0.99876213 0.9937323 0.9976354 1.002908 1.0059509
00000000: 9dd9 7f3f 74c9 7f3f 9549 803f 56b2 7c3f
00000010: bb2d 7f3f 5178 7f3f 2927 7f3f d285 803f
00000020: f8de 803f 6b89 803f d9c7 803f e0ae 7f3f
00000030: 3d65 7e3f 0965 7f3f 4a5f 803f 00c3 803f

layer2.bn.bias f4 [16]
-0.010718223 -0.004170077 -0.0007772811 -0.009235711 -0.0094111925 0.003825903 0.002412456 0.0028320341
0.0045278114 0.0037450837 0.0010557164 -0.0069552916 -0.007831598 0.0031785895 0.0070342626 0.004854304
00000000: 7c9b 2fbc 24a5 88bb 74c2 4bba 6151 17bc
00000010: 6731 1abc 00bc 7a3b 4c1a 1e3b a699 393b
00000020: 095e 943b 1470 753b f75f 8a3a 37e9 e3bb
00000030: 1a50 00bc e24f 503b ac7f e63b da10 9f3b

layer2.bn.running_mean f4 [16]
-0.3017896 0.42090672 0.23722845 0.19775236 0.7994883 0.15591642 -0.39497495 0.9710098
0.31397462 0.07402955 0.22060223 -0.5144996 -0.04009271 0.5480567 0.13001557 0.6206107
00000000: 2b84 9abe 1681 d73e 04ec 723e 987f 4a3e
00000010: 44ab 4c3f 8ea8 1f3e 283a cabe 1994 783f
00000020: 48c1 a03e ce9c 973d 8de5 613e 3fb6 03bf
00000030: 4138 24bd 724d 0c3f cd22 053e 58e0 1e3f

layer2.bn.running_var f4 [16]
0.21404088 0.1943386 0.15416992 0.20547317 0.29577258 0.24479951 0.22519654 0.28673977
0.25136045 0.21459714 0.23427698 0.16597223 0.23458612 0.2871652 0.18462968 0.1999077
00000000: 882d 5b3e b300 473e b8de 1d3e 8f67 523e
00000010: 816f 973e b9ac 7a3e ec99 663e 8ecf 923e
00000020: 51b2 803e 5abf 5b3e 4ee6 6f3e a0f4 293e
00000030: 5837 703e 5107 933e 900f 3d3e 9bb4 4c3e

layer3.conv.weight f4 [32, 16, 3, 3]
-0.030028919 -0.024033254 -0.043228313 -0.060115494 -0.007912985 -0.03055748 -0.023732038 -0.027667718
-0.01302916 0.06134668 -0.011459673 -0.017938664 0.0169263 0.07234259 0.031335495 -0.003518434
0.03643147 -0.0518329 -0.045222398 -0.03523335 0.048461687 0.054109666 -0.055280007 -0.047775418
-0.071072794 0.07241149 -0.014498889 0.06799617 0.0041998634 -0.017673837 -0.06354285 -0.054764807
0.013682635 0.026943075 -0.00026169483 -0.07355823 -0.04797824 -0.023614913 -0.064706646 0.03793193
-0.054867435 0.049930725 -0.029686447 -0.04905093 -0.0014119855 -0.027259775 -0.029944621 0.037376065
-0.07616552 -0.03435551 0.0020353089 -0.09279868 -0.012758689 -0.030600984 0.03849697 -0.06454941
0.038184013 0.08271876 0.06884762 0.04064835 0.02817711 0.028661642 -0.059317537 0.0010628244
-0.004654377 -0.078163736 0.07364673 0.06714271 0.06677756 6.2515566e-05 -0.04649621 -0.06282145
0.08081224 -0.026121935 0.08400731 0.00018073827 0.04502276 0.010312572 0.011043338 0.07791032
0.04391877 -0.018701164 -0.024606215 0.074645795 -0.060834665 -0.05497941 0.014870155 0.03324119
0.01590445 -0.044156257 0.06516273 0.053401284 0.036409732 -0.06523744 -0.048076358 0.05289963
0.032484196 -0.030963259 0.059266705 0.0075638304 0.024225079 -0.063132346 0.009095137 0.021050032
0.09225721 -0.075135246 0.017971525 -0.0180283 -0.081148535 0.032295346 0.06398388 0.077016704
-0.019710662 -0.023541754 0.040416036 -0.082407355 0.043651383 -0.0033380706 0.051617235 -0.071278825
-0.025916249 0.04421378 0.040479988 0.046474457 0.03418663 0.021031586 -0.010459117 -0.00067613187
0.0090916045 0.064888746 -0.005319689 -0.056335647 0.039981637 -0.037255634 0.055527993 -0.038815357
-0.029022092 -0.07807759 -0.052949537 -0.008101045 0.040767945 0.048161406 -0.001939569 0.024176141
0.04112703 0.047152363 0.04380839 -0.020645818 0.059880704 -0.023824738 0.082364015 -0.07317683
-0.0666417 -0.014480582 0.08718261 -0.013744827 -0.080200374 -0.038006697 0.0013194706 -0.021545738
0.052079063 0.041649558 0.044124067 0.03532763 0.048028428 -0.024095025 -0.04926901 -0.029113945
0.040965065 -0.026639543 0.032438487 -0.039932296 -0.011008952 0.076225795 0.0033354217 0.005007139
0.075098224 0.034089956 0.080446534 -0.01968141 0.074090496 0.018290997 -0.008434181 0.044259116
0.06304431 -0.06557535 0.06200958 0.072377525 -0.05724008 -0.022329217 -0.02998221 -0.021369148
-0.0010161626 0.070138514 0.09077301 0.06506039 -0.07034616 -0.051264107 -0.042798642 0.092850015
0.07534001 -0.008544219 0.015521752 0.025230523 0.082379274 0.01776846 -0.06795548 -0.035970673
0.019989727 0.064837486 0.015015951 -0.052047238 -0.055028785 0.060249392 0.038764242 -0.05556342
0.078625955 -0.013436782 0.05799526 -0.053042393 0.049999174 -0.0032307627 0.07388905 -0.067004986
0.042807292 0.02572921 0.07035721 -0.07475326 0.053846706 0.010635456 0.08370185 0.00056211127
-0.05674864 0.018180387 -0.06597491 -0.013515828 0.08070974 0.014051731 0.009017308 0.079301514
-0.055137515 -0.050649107 0.031620562 0.06564522 -0.027933853 0.052045956 0.04677467 -0.004699039
-0.017903665 -0.026603831 0.023345279 0.05994038 -0.054103985 -0.057560075 0.06112712 0.0332328
00000000: 35ff f5bc 63e1 c4bc 2c10 31bd aa3b 76bd
00000010: 77a5 01bc ae53 fabc b169 c2bc 69a7 e2bc
00000020: 4278 55bc a846 7b3d 5ac1 3bbc 1bf4 92bc
00000030: 06a9 8a3c 5a28 943d a659 003d 8795 66bb
00000040: 2a39 153d bc4e 54bd 1f3b 39bd d850 10bd
00000050: c37f 463d 19a2 5d3d 4a6d 62bd 28b0 43bd
00000060: 9d8e 91bd 7a4c 943d c08c 6dbc 9341 8b3d
00000070: 029f 893b b9c8 90bc c122 82bd 1051 60bd
00000080: 212d 603c b9b7 dc3c 1634 89b9 b3a5 96bd
00000090: d584 44bd 1074 c1bc eb84 84bd 835e 1b3d
000000a0: adbc 60bd 2984 4c3d fe30 f3bc a1e9 48bd
000000b0: 5f12 b9ba e44f dfbc 6c4e f5bc a517 193d
000000c0: abfc 9bbd 5db8 0cbd d162 053b 3c0d bebd
000000d0: d209 51bc eaae fabc 00af 1d3d 7b32 84bd
000000e0: d766 1c3d 7468 a93d fbff 8c3d e27e 263d
000000f0: afd3 e63c d2cb ea3c f2f6 72bd 784e 8b3a
00000100: be83 98bb 4f14 a0bd 19d4 963d 1e82 893d
00000110: acc2 883d ca1a 8338 cf72 3ebd 88a8 80bd
00000120: e380 a53d abfd d5bc 060c ac3d 8f84 3d39
00000130: c969 383d 10f6 283c 1eef 343c 728f 9f3d
00000140: 2be4 333d 2f33 99bc f992 c9bc e5df 983d
00000150: c52d 79bd 1732 61bd f3a1 733c ea27 083d
00000160: 0d4a 823c 31dd 34bd 0a74 853d 4ebb 5a3d
00000170: 5f22 153d 359b 85bd b7eb 44bd 48ad 583d
00000180: 260e 053d a9a6 fdbc a5c1 723d 02da f73b
00000190: ac73 c63c 884b 81bd c503 153c 1e71 ac3c
000001a0: 59f1 bc3d 82e0 99bd 0539 933c 16b0 93bc
000001b0: 3431 a6bd 2048 043d fb09 833d efba 9d3d
000001c0: 4178 a1bc a3da c0bc 498b 253d 30c5 a8bd
000001d0: cbcb 323d 88c3 5abb 986c 533d a2fa 91bd
000001e0: 504e d4bc 8219 353d 58ce 253d 005c 3e3d
000001f0: 4807 0c3d 6f4a ac3c b75c 2bbc 713e 31ba
00000200: f4f4 143c 64e4 843d c950 aebb 35c0 66bd
00000210: c9c3 233d 5d99 18bd 5271 633d dafc 1ebd
00000220: bdbf edbc 25e7 9fbd 9de1 58bd 3fba 04bc
00000230: 4afc 263d e544 453d 2339 feba 0b0d c63c
00000240: d174 283d d622 413d 6d70 333d 6b21 a9bc
00000250: 7845 753d 192c c3bc 77ae a83d bcdd 95bd
00000260: 727b 88bd f73f 6dbc cc8c b23d fc31 61bc
00000270: 1840 a4bd e9ac 1bbd 16f2 ac3a b080 b0bc
00000280: db50 553d ba98 2a3d 70bb 343d b4b3 103d
00000290: 75b9 443d ee62 c5bc 4dce 49bd 5e80 eebc
000002a0: fcca 273d 2c3b dabc 38de 043d 0c90 23bd
000002b0: e45e 34bc 451c 9c3d 1797 5a3b ed12 a43b
000002c0: 19cd 993d e9a1 0b3d 27c1 a43d e93a a1bc
000002d0: c2bc 973d 00d7 953c 852f 0abc 0c49 353d
000002e0: 601d 813d 5e4c 86bd c2fd 7d3d ab3a 943d
000002f0: 9374 6abd c3eb b6bc 409d f5bc 5a0e afbc
00000300: c230 85ba c8a4 8f3d 33e7 b93d 623e 853d
00000310: a611 90bd 50fa 51bd a14d 2fbd 2628 be3d
00000320: dd4b 9a3d 0dfd 0bbc f24e 7e3c 3eb0 ce3c
00000330: 77b6 a83d 298f 913c 3e2c 8bbd fc55 13bd
00000340: 7fc1 a33c 84c9 843d 7705 763c 7c2f 55bd
00000350: dd65 61bd 11c8 763d 41c7 1e3d 7896 63bd
00000360: a506 a13d f325 5cbc 708c 6d3d fb42 59bd
00000370: efcb 4c3d 34bb 53bb 2453 973d e939 89bd
00000380: b356 2f3d 10c6 d23c 7117 903d 3d18 99bd
00000390: 5d8e 5c3d 5640 2e3c e06b ab3d a65a 133a
000003a0: 4371 68bd 09ef 943c db1d 87bd 7e71 5dbc
000003b0: 264b a53d 3b39 663c 55bd 133c d568 a23d
000003c0: e0d7 61bd 7075 4fbd 9084 013d 0071 863d
000003d0: 89d5 e4bc 242e 553d cc96 3f3d 65fa 99bb
000003e0: b5aa 92bc 47f0 d9bc 993e bf3c 0b84 753d
000003f0: 249c 5dbd 1dc4 6bbd 6e60 7a3d 1e1f 083d

layer3.conv.bias f4 [32]
0.05790634 0.0134566985 0.08263187 -0.06667993 -0.008005959 0.03464911 -0.024143985 -0.0666613
0.015057185 -0.032269437 -0.0750557 -0.042029794 -0.07558154 -0.008633975 -0.07846672 -0.029283466
0.022473117 -0.062323827 -0.081884325 -0.05410844 -0.019524232 -0.0016972688 -0.05671361 -0.07319173
-0.054344382 0.015331395 0.05163986 -0.017273642 -0.06634382 -0.013093804 0.0138135785 0.005308138
00000000: 332f 6d3d 7c79 5c3c e63a a93d 7d8f 88bd
00000010: 6d2b 03bc 3aec 0d3d 9bc9 c5bc b885 88bd
00000020: 69b2 763c f52c 04bd ceb6 99bd 6f27 2cbd
00000030: 7fca 9abd 8475 0dbc 29b3 a0bd e1e3 efbc
00000040: 8b19 b83c 4547 7fbd f8b2 a7bd d0a0 5dbd
00000050: 48f1 9fbc e476 deba 884c 68bd 8ce5 95bd
00000060: 3798 5ebd 8830 7b3c 5184 533d 7481 8dbc
00000070: 45df 87bd 6587 56bc 5952 623c e4ef ad3b

layer3.bn.weight f4 [32]
0.99720746 1.0011574 0.9991527 1.0092964 1.0032785 0.9902355 1.0050559 1.004955
0.9943466 1.0125728 1.008215 0.9913183 1.0032113 0.9968569 0.9933426 0.99291396
1.0083796 0.99450755 1.0079446 1.0047833 1.0039002 1.0137997 1.0004135 0.9985015
1.0041037 1.0031126 0.99863786 0.9931799 0.99591637 0.98974717 0.9966562 0.9900334
00000000: fd48 7f3f ed25 803f 79c8 7f3f a030 813f
00000010: 6e6b 803f 1380 7d3f aca5 803f 5ea2 803f
00000020: 808d 7e3f fc9b 813f 300d 813f 09c7 7d3f
00000030: 3a69 803f 0432 7f3f b34b 7e3f 9c2f 7e3f
00000040: 9512 813f 0c98 7e3f 5404 813f bd9c 803f
00000050: cd7f 803f 30c4 813f 8d0d 803f cb9d 7f3f
00000060: 7886 803f fe65 803f bba6 7f3f 0a41 7e3f
00000070: 60f4 7e3f 1260 7d3f dc24 7f3f d472 7d3f

layer3.bn.bias f4 [32]
-0.010318383 -0.003218672 -0.002661647 0.0069558686 -0.00060564646 -0.007343543 -0.009584711 0.0056507806
-0.009181448 0.01202708 0.003342234 -0.0132460175 -0.005823518 0.0024195109 -0.008404021 -0.0023579928
0.007498152 -0.0146841295 0.007983682 -0.0017763501 -0.0012700112 5.2825344e-06 -0.0006040076 -0.015869614
0.01083048 0.005803434 -0.0022962505 -0.0020719212 -0.00394375 -0.014346847 -0.005884046 -0.00016933019
00000000: 6f0e 29bc 5bf0 52bb 076f 2ebb 0eee e33b
00000010: 3fc4 1eba 1ba2 f0bb 3109 1dbc 2f2a b93b
00000020: c96d 16bc 3b0d 453c 6209 5b3b d305 59bc
00000030: 36d3 bebb a890 1e3b 05b1 09bc 8e88 1abb
00000040: 0fb3 f53b b495 70bc fdcd 023c 6bd4 e8ba
00000050: 8176 a6ba a040 b136 4456 1eba fe00 82bc
00000060: 5372 313c bc2a be3b b17c 16bb 12c9 07bb
00000070: 933a 81bb 0a0f 6bbc f5ce c0bb 3a8e 31b9

layer3.bn.running_mean f4 [32]
0.03727891 1.3211703 1.0274725 0.89526445 -1.0660301 -1.9896965 0.5394019 0.018783286
-0.76504016 0.8430893 -1.1639009 -0.24834748 -0.040292017 -0.87357926 -1.0146714 -1.1630851
0.6188829 -1.3774545 -0.48268107 -0.0008206717 0.55358475 -0.97435373 1.0128659 -1.4803373
0.95965385 -0.47191042 0.82563686 -1.0335337 -0.112864785 0.0022779503 0.5278404 0.9777293
00000000: c5b1 183d 1c1c a93f 3884 833f 0d30 653f
00000010: ad73 88bf 60ae febf 3e16 0a3f 68df 993c
00000020: acd9 43bf b3d4 573f b4fa 94bf cd4e 7ebe
00000030: 3e09 25bd e4a2 5fbf c1e0 81bf f9df 94bf
00000040: 1c6f 1e3f 6e50 b0bf f921 f7be 5822 57ba
00000050: bbb7 0d3f 3f6f 79bf 97a5 813f b17b bdbf
00000060: e0ab 753f 3e9e f1be f05c 533f d54a 84bf
00000070: a725 e7bd aa49 153b 8c20 073f 784c 7a3f

layer3.bn.running_var f4 [32]
0.22033289 0.31006148 0.5018231 0.35140836 0.40262225 0.68519074 0.3255881 0.30698505
0.7787303 0.39502445 0.28760737 0.73005426 0.40227568 0.41152707 0.63054615 0.49328524
0.3172645 0.53989094 0.39546788 0.3359029 0.2756358 0.3156071 0.35031033 0.5333199
0.5128488 0.31620595 0.32970327 0.59433925 0.28812546 0.31698263 0.31727278 0.33717325
00000000: f29e 613e 61c0 9e3e 7b77 003f cceb b33e
00000010: 8124 ce3e a968 2f3f 7cb3 a63e 252d 9d3e
00000020: de5a 473f a540 ca3e 4641 933e d6e4 3a3f
00000030: 14f7 cd3e adb3 d23e 796b 213f e28f fc3e
00000040: 7e70 a23e 4b36 0a3f c47a ca3e 77fb ab3e
00000050: 2320 8d3e 4197 a13e e05b b33e a787 083f
00000060: 0f4a 033f bfe5 a13e dece a83e 9e26 183f
00000070: 2e85 933e 8c4b a23e 9471 a23e f9a1 ac3e

layer4.conv.weight f4 [32, 32, 3, 3]
0.032394376 0.03463874 -0.038930565 -0.0022272216 0.005507647 -0.046572033 -0.016873555 -0.04644901
0.014323889 0.03223778 0.010728484 -0.021727866 0.022650305 0.003464737 -0.050490063 0.015667569
0.055632073 0.0028869368 0.010074008 -0.03293099 0.0011389777 0.035373338 -0.062206365 -0.035356756
-0.026061181 -0.042380527 -0.010267129 -0.0062758424 -0.013978123 0.0014101607 0.04157884 -0.061640937
0.008028388 0.005054223 0.02935029 -0.038097914 0.025306772 0.009756829 0.00817443 0.045508537
0.034332164 0.04304266 -0.021109737 -0.049874514 0.012183445 -0.020301135 -0.0013733294 0.002824067
-0.0054771467 -0.04810877 0.0154188 -0.013503285 0.01336636 -0.033298843 0.026161358 -0.010669835
0.0356992 -0.007978373 0.005695484 -0.020553295 -0.043304905 -0.0048222416 -0.06637533 -0.0027291956
0.061592523 -0.024025572 -0.058740083 -0.029782223 -0.03241985 0.021031681 0.012832589 -0.04529371
-0.0661531 0.031510953 -0.0017808068 -0.046913125 -0.018124003 -0.009069199 -0.040838346 -0.032051325
0.042175934 0.023014836 -0.012005497 0.03832943 -0.067852505 0.026551405 0.051633283 0.019550983
-0.03553529 0.052897338 -0.03986369 0.0021765344 0.00647005 0.033520196 0.036196392 0.03536487
0.038752202 -0.014667152 -0.011533696 -0.015503706 -0.020147521 -0.02389381 0.0023176707 0.052978754
-0.05389434 0.021761766 -0.016980492 0.05584522 -0.010040061 -0.0049027964 -0.023930816 0.045504615
-0.008687682 -0.01102326 0.02809849 0.022031844 0.059288286 -0.039678205 0.029419355 0.028222986
0.0005660361 0.021875836 0.06587853 0.00416647 0.036295217 0.026571654 -0.01837794 -0.013221648
-0.049360294 0.012150239 -0.0215188 0.02995471 0.015768766 0.03711137 -0.050122607 -0.018744674
0.027930936 0.01752989 0.024113605 0.002955856 0.00628768 -0.054230023 -0.0063559846 -0.017104402
0.02155251 -0.0033829187 -0.049539946 -0.0028478166 -0.06040894 -0.0020718256 -0.013531061 0.006074205
0.054752816 0.04884575 -0.04760551 -0.03682367 0.0079030525 0.0011195152 0.039398298 0.033677652
0.028224124 -0.044296864 0.016294885 -0.041246288 -0.011940579 0.041729685 0.0288013 -0.049340125
0.020324463 0.008849217 0.043539103 0.009706061 -0.02708246 0.03836017 -0.035712577 0.03165621
-0.010137139 -0.056681458 0.04406664 0.036597196 0.05147785 -0.05718987 -0.0037340757 0.01771868
-0.04551231 -0.013246176 0.032656435 0.044725537 -0.045283087 0.007914392 0.020507997 0.010875443
-0.06239 -0.03851678 -0.023126522 0.0057216664 -0.03425601 0.0065846858 -0.04863093 0.04943293
0.05250546 -0.029516358 0.024988648 -0.037505426 -0.05772085 -0.037776418 -0.029070199 0.056631308
0.030771064 0.023969918 0.025892194 0.038090486 -0.003740173 0.044408206 0.03679223 -0.023390384
-0.003952382 0.015796209 -0.05400086 0.011395857 -0.011105353 0.008080623 -0.056080606 -0.04687729
-0.042530276 -0.012015732 -0.0076759513 0.026803454 -0.012045759 -0.025431179 0.049804382 0.05586328
0.03270738 0.037724555 -0.057030033 0.0035707103 -0.032859977 -0.0006060431 -0.020238664 -0.032506343
-0.0019571618 0.03325643 -0.004669732 -0.023195142 -0.05699622 0.04680605 0.035875894 -0.011196889
0.05205618 -0.033915155 -0.0165839 -0.04580089 -0.002557848 0.032393306 -0.010218143 -0.041292805
00000000: f7af 043d 5ae1 0d3d a875 1fbd 94f6 11bb
00000010: 7e79 b43b 51c2 3ebd 693a 8abc 5141 3ebd
00000020: bfae 6a3c c30b 043d 86c6 2f3c a3fe b1bc
00000030: 228d b93c a410 633b abce 4ebd 4659 803c
00000040: 75de 633d c332 3d3b 740d 253c a5e2 06bd
00000050: c049 953a a2e3 103d 1acc 7ebd 3fd2 10bd
00000060: 427e d5bc 3497 2dbd 7637 28bc 95a5 cdbb
00000070: 7f04 65bc 24d5 b83a 934e 2a3d 357b 7cbd
00000080: 8089 033c e59d a53b 0570 f03c 8f0c 1cbd
00000090: 2650 cf3c 1bdb 1f3c 0bee 053c 2967 3a3d
000000a0: e29f 0c3d 804d 303d 54ee acbc 3849 4cbd
000000b0: 129d 473c 914e a6bc 4a01 b4ba fb13 393b
000000c0: a379 b3bb b40d 45bd 229f 7c3c e23c 5dbc
000000d0: 94fe 5a3c 5e64 08bd 5850 d63c 88d0 2ebc
000000e0: 5339 123d b9b7 02bc 2fa1 ba3b 625f a8bc
000000f0: 7c60 31bd e503 9ebb caef 87bd 4edc 32bb
00000100: 7148 7c3d 47d1 c4bc 7199 70bd d9f9 f3bc
00000110: adca 04bd a24a ac3c c83f 523c e685 39bd
00000120: 477b 87bd a111 013d f669 e9ba fa27 40bd
00000130: ca78 94bc fa96 14bc 1c46 27bd 4048 03bd
00000140: acc0 2c3d 9c89 bc3c b4b2 44bc 52ff 1c3d
00000150: 41f6 8abd 5582 d93c 6c7d 533d 6229 a03c
00000160: 748d 11bd e1aa 583d 1c48 23bd 30a4 0e3b
00000170: b702 d43b 794c 093d ab42 143d c1da 103d
00000180: a1ba 1e3d 7f4e 70bc d4f7 3cbc 4203 7ebc
00000190: 6a0c a5bc f4bc c3bc 10e4 173b 4000 593d
000001a0: 50c0 5cbd bb45 b23c ac1a 8bbc f5bd 643d
000001b0: 117f 24bc a3a7 a0bb 8f0a c4bc 0c63 3a3d
000001c0: c856 0ebc e79a 34bc ce2e e63c 207c b43c
000001d0: 46d8 723d 9d85 22bd dc00 f13c e433 e73c
000001e0: 0a62 143a f434 b33c 53eb 863d e286 883b
000001f0: 4baa 143d ccac d93c 558d 96bc 9c9f 58bc
00000200: 052e 4abd cc11 473c 3248 b0bc 9463 f53c
00000210: 802d 813c 1802 183d 5d4d 4dbd 6e8e 99bc
00000220: 6bcf e43c d89a 8f3c e589 c53c 09b7 413b
00000230: e208 ce3b 4d20 5ebd dd45 d0bb 881e 8cbc
00000240: e48e b03c f5b3 5dbb 66ea 4abd 6fa2 3abb
00000250: 5d6f 77bd 77c7 07bb 62b1 5dbc 200a c73b
00000260: 7d44 603d 7b12 483d fffd 42bd 6bd4 16bd
00000270: ce7b 013c b2bc 923a 1c60 213d 94f1 093d
00000280: 4736 e73c a170 35bd da7c 853c def1 28bd
00000290: 6ba2 43bc bfec 2a3d b4f0 eb3c df18 4abd
000002a0: 7d7f a63c 4efc 103c 0f56 323d 2c06 1f3c
000002b0: 09dc ddbc 8e1f 1d3d 5a47 12bd f1a9 013d
000002c0: 3e16 26bc d12a 68bd 397f 343d f1e6 153d
000002d0: 70da 523d ed3f 6abd 65b7 74bb c426 913c
000002e0: 1e6b 3abd 7d06 59bc c1c2 053d 2032 373d
000002f0: c27a 39bd 5eab 013c 6300 a83c ea2e 323c
00000300: a88c 7fbd c5c3 1dbd d573 bdbc d17c bb3b
00000310: 0850 0cbd 59c4 d73b 3a31 47bd 2f7a 4a3d
00000320: f70f 573d 4acc f1bc feb4 cc3c 4a9f 19bd
00000330: b36c 6cbd 72bb 1abd a024 eebc 3bf6 673d
00000340: 9913 fc3c 905c c43c de1b d43c c504 1c3d
00000350: b11d 75bb 61e5 353d 73b3 163d 319d bfbc
00000360: fc82 81bb 0d67 813c 0130 5dbd b0b5 3a3c
00000370: 3af3 35bc 9764 043c c7b4 65bd 6702 40bd
00000380: 3a34 2ebd a2dd 44bc 8c86 fbbb eb92 db3c
00000390: 935b 45bc 0c55 d0bc aeff 4b3d e5d0 643d
000003a0: 2cf8 053d 1085 1a3d 5398 69bd 9402 6a3b
000003b0: 2f98 06bd ddde 1eba 8ecb a5bc 5f25 05bd
000003c0: ba43 00bb e537 083d 8d04 99bb bd03 bebc
000003d0: de74 69bd b3b7 3f3d 9af2 123d 2873 37bc
000003e0: dc38 553d 9eea 0abd f6da 87bc b799 3bbd
000003f0: 92a1 27bb d8ae 043d 006a 27bc a522 29bd

layer4.conv.bias f4 [32]
0.028161775 -0.040854648 0.03906742 0.055742 0.05116165 -0.03880237 -0.021330621 0.021235371
-0.050804425 0.021762991 0.016355788 -0.054220244 0.04257727 0.0036985334 0.020392729 -0.066107
0.00026722578 -0.043849517 0.05594732 -0.038109377 -0.021899153 0.054327074 -0.009249171 0.05021619
0.034366094 0.0037472534 -0.024943087 -0.0150900865 0.051487897 -0.00052492524 0.045875266 -0.0059512113
00000000: 86b3 e63c 3457 27bd 2905 203d b951 643d
00000010: e18e 513d 3cef 1ebd 8ebd aebc cdf5 ad3c
00000020: 4d18 50bd 4d48 b23c 93fc 853c 0c16 5ebd
00000030: 8165 2e3d 1863 723b a70e a73c 1b63 87bd
00000040: 701a 8c39 8d9b 33bd 0429 653d 9418 1cbd
00000050: da65 b3bc 1186 5e3d d689 17bc 7eaf 4d3d
00000060: 76c3 0c3d 7b94 753b 7255 ccbc 693c 77bc
00000070: f9e4 523d 239b 09ba b4e7 3b3d 6102 c3bb

layer4.bn.weight f4 [32]
1.0063665 0.9975628 1.0015131 0.9978619 1.0136371 0.99501586 1.0064825 1.0035466
1.0109059 1.0030352 0.9932661 0.9869019 0.9814745 0.9933499 1.0038772 0.998578
0.9990628 0.9944815 1.0104 0.9986362 1.0058818 1.0121245 0.9924056 1.0126898
0.9939457 0.99992114 0.9889431 1.0040041 1.0082443 1.0025088 1.0002136 0.9807969
00000000: 9ed0 803f 4760 7f3f 9531 803f e173 7f3f
00000010: dcbe 813f 5cb9 7e3f 6bd4 803f 3774 803f
00000020: 5d65 813f 7563 803f b046 7e3f 9aa5 7c3f
00000030: ea41 7b3f 2e4c 7e3f 0c7f 803f cfa2 7f3f
00000040: 94c2 7f3f 5796 7e3f ca54 813f 9fa6 7f3f
00000050: bcc0 803f 4c8d 813f 4b0e 7e3f d29f 813f
00000060: 3a73 7e3f d5fa 7f3f 602b 7d3f 3583 803f
00000070: 260e 813f 3552 803f 0007 803f 8115 7b3f

layer4.bn.bias f4 [32]
-0.0028545854 0.0039593503 0.004679725 -0.001182078 0.010296922 -0.0039834045 0.00017645862 0.0014193727
0.009521084 0.0005576742 -0.0083520105 -0.0003129128 -0.019899124 -0.0019146006 0.005037795 -0.0028070167
-0.010055019 0.0025811708 0.0006995767 0.0017066334 0.0018347225 0.008827302 -0.0074270735 -0.011842965
-0.0023730553 -0.00030445555 -0.013845258 0.0026292424 0.00119364 0.003434923 0.009913823 -0.018259557
00000000: ff13 3bbb 70bd 813b 6158 993b f5ef 9aba
00000010: 6cb4 283c 3887 82bb c007 3939 3f0a ba3a
00000020: 52fe 1b3c e230 123a dfd6 08bc 720e a4b9
00000030: 7d03 a3bc 56f3 faba 1614 a53b edf5 37bb
00000040: cebd 24bc dc28 293b cc63 373a 1db1 df3a
00000050: 127b f03a 63a0 103c cf5e f3bb ff08 42bc
00000060: 4385 1bbb 559f 9fb9 39d7 62bc 5e4f 2c3b
00000070: ea73 9c3a 721c 613b 966d 223c 1195 95bc

layer4.bn.running_mean f4 [32]
-0.4071601 0.66543436 0.15863408 -1.1838505 -0.5599786 0.66376233 0.16011661 0.13614681
-0.27904373 -0.071623355 -0.066505335 -0.03350295 0.044178426 -1.5930736 -0.18411934 -0.09524711
0.42391974 -0.7984681 0.74347126 0.34712964 0.8966219 -0.18119879 -0.93440616 0.29247367
0.96963435 0.44419283 0.3372854 1.4831898 0.41133803 -0.18978827 0.3825667 -1.2376944
00000000: 4a77 d0be e859 2a3f f970 223e 6a88 97bf
00000010: c25a 0fbf 54ec 293f 9cf5 233e 126a 0b3e
00000020: d2de 8ebe 44af 92bd f333 88bd 643a 09bd
00000030: 70f4 343d d6e9 cbbf c889 3cbe eb10 c3bd
00000040: 020c d93e 6868 4cbf 2254 3e3f faba b13e
00000050: 0389 653f 2d8c 39be 3e35 6fbf 1cbf 953e
00000060: f539 783f 3e6d e33e acb0 ac3e 2ad9 bd3f
00000070: e69a d23e db57 42be c8df c33e c56c 9ebf

layer4.bn.running_var f4 [32]
0.48916343 0.57289803 0.30432633 0.5091213 0.29842165 0.6684542 0.46676415 0.21832712
0.29674688 0.35842356 0.29326764 0.29244715 0.3742301 0.6176385 0.46188375 0.2946733
0.59140486 0.22071435 0.4175769 0.24371234 0.35058835 0.57887995 0.33594066 0.5217745
0.3052623 0.3143124 0.7580098 0.81936955 0.43768412 0.25211495 0.37905088 0.28455418
00000000: a173 fa3e 72a9 123f a9d0 9b3e c655 023f
00000010: b9ca 983e d01f 2b3f b6fb ee3e 2591 5f3e
00000020: 35ef 973e 4b83 b73e 2d27 963e a2bb 953e
00000030: 169b bf3e 8f1d 1e3f 077c ec3e 6bdf 963e
00000040: 4f66 173f f102 623e a4cc d53e ba8f 793e
00000050: 5180 b33e 7a31 143f 6a00 ac3e 0393 053f
00000060: 574b 9c3e 8eed a03e ee0c 423f 34c2 513f
00000070: 2218 e03e 3615 813e f512 c23e 16b1 913e
