models/model_num_1.ckpt (torch, 445593 bytes, 40 tensors)

melspec.spectrogram.window f4 [1024]
000000 00 00 00 00 00 00 1e 37 00 e0 1d 38 00 a0 b1 38
       0.0 9.417534e-06 3.7640333e-05 8.46982e-05
000010 00 e8 1d 39 00 b8 76 39 00 a4 b1 39 00 c4 f1 39
       0.00015059114 0.00023528934 0.0003388226 0.00046113133
000020 00 e2 1d 3a 00 d0 47 3a 00 aa 76 3a 00 39 95 3a
       0.00060227513 0.0007622242 0.0009409487 0.0011384785
000030 00 93 b1 3a 00 63 d0 3a 00 a8 f1 3a 80 b1 0a 3b
       0.0013547838 0.0015898645 0.0018436909 0.0021162927
000040 80 c9 1d 3b 80 1b 32 3b 00 a8 47 3b 80 6e 5e 3b
       0.0024076402 0.0027177036 0.0030465126 0.0033940375
000050 80 6e 76 3b c0 d3 87 3b 40 0d 95 3b 00 e3 a2 3b
       0.0037602484 0.0041451156 0.0045486987 0.004970908
000060 00 55 b1 3b 40 63 c0 3b c0 0d d0 3b 00 54 e0 3b
       0.005411744 0.0058712065 0.0063492954 0.006845951
000070 00 36 f1 3b e0 59 01 3c 60 66 0a 3c 80 c0 13 3c
       0.0073611736 0.007894963 0.00844726 0.009018064
000080 20 68 1d 3c 40 5d 27 3c c0 9f 31 3c 80 2f 3c 3c
       0.009607345 0.010215104 0.01084131 0.011485934
000090 60 0c 47 3c 40 36 52 3c 00 ad 5d 3c a0 70 69 3c
       0.0121489465 0.012830317 0.013530016 0.014248043
0000a0 00 81 75 3c 00 ef 80 3c b0 43 87 3c 90 be 8d 3c
       0.014984369 0.015738964 0.016511768 0.017302781
0000b0 90 5f 94 3c 90 26 9b 3c a0 13 a2 3c 90 26 a9 3c
       0.018111974 0.018939286 0.019784749 0.02064827
0000c0 50 5f b0 3c e0 bd b7 3c 30 42 bf 3c 10 ec c6 3c
       0.021529824 0.022429407 0.02334699 0.024282485
0000d0 90 bb ce 3c 80 b0 d6 3c e0 ca de 3c 90 0a e7 3c
       0.025235921 0.026207209 0.027196348 0.028203279
0000e0 80 6f ef 3c a0 f9 f7 3c 68 54 00 3d 80 be 04 3d
       0.029227972 0.030270398 0.031330496 0.032408237
0000f0 10 3b 09 3d 10 ca 0d 3d 68 6b 12 3d 18 1f 17 3d
       0.033503592 0.03461653 0.03574696 0.036894888
000100 10 e5 1b 3d 40 bd 20 3d a0 a7 25 3d 28 a4 2a 3d
       0.038060248 0.039242983 0.040443063 0.041660458
000110 d0 b2 2f 3d 78 d3 34 3d 28 06 3a 3d c0 4a 3f 3d
       0.04289514 0.044146985 0.045416027 0.046702147
000120 40 a1 44 3d a0 09 4a 3d c0 83 4f 3d a8 0f 55 3d
       0.048005342 0.049325585 0.050662756 0.052016884
000130 38 ad 5a 3d 68 5c 60 3d 38 1d 66 3d 80 ef 6b 3d
       0.05338785 0.054775625 0.05618021 0.057601452
000140 48 d3 71 3d 70 c8 77 3d f8 ce 7d 3d 64 f3 81 3d
       0.059039384 0.060493886 0.06196496 0.06345251
000150 ec 07 85 3d 08 25 88 3d b4 4a 8b 3d e8 78 8e 3d
       0.064956516 0.06647688 0.06801358 0.06956655
000160 98 af 91 3d c0 ee 94 3d 58 36 98 3d 58 86 9b 3d
       0.0711357 0.072721004 0.0743224 0.075939834
000170 b4 de 9e 3d 6c 3f a2 3d 6c a8 a5 3d b8 19 a9 3d
       0.07757321 0.07922253 0.080887645 0.082568586
000180 3c 93 ac 3d f8 14 b0 3d e0 9e b3 3d e8 30 b7 3d
       0.0842652 0.085977495 0.087705374 0.08944875
000190 0c cb ba 3d 44 6d be 3d 84 17 c2 3d c0 c9 c5 3d
       0.09120759 0.092981845 0.094771415 0.096576214
0001a0 f8 83 c9 3d 1c 46 cd 3d 20 10 d1 3d 04 e2 d4 3d
       0.09839624 0.10023138 0.10208154 0.103946716
0001b0 b8 bb d8 3d 30 9d dc 3d 6c 86 e0 3d 5c 77 e4 3d
       0.105826795 0.10772169 0.10963139 0.111555785
0001c0 f4 6f e8 3d 2c 70 ec 3d 00 78 f0 3d 60 87 f4 3d
       0.11349478 0.115448326 0.11741638 0.11939883
0001d0 40 9e f8 3d 9c bc fc 3d 32 71 00 3e ca 87 02 3e
       0.12139559 0.12340662 0.1254318 0.12747112
0001e0 0e a2 04 3e fc bf 06 3e 8c e1 08 3e b8 06 0b 3e
       0.12952444 0.13159174 0.1336729 0.13576782
0001f0 7c 2f 0d 3e d6 5b 0f 3e bc 8b 11 3e 28 bf 13 3e
       0.13787645 0.13999876 0.1421346 0.14428389
000200 1a f6 15 3e 88 30 18 3e 6e 6e 1a 3e c6 af 1c 3e
       0.14644662 0.14862263 0.15081188 0.15301427
000210 8c f4 1e 3e b8 3c 21 3e 44 88 23 3e 2e d7 25 3e
       0.15522975 0.15745819 0.1596995 0.16195366
000220 6e 29 28 3e fc 7e 2a 3e d8 d7 2c 3e f6 33 2f 3e
       0.16422054 0.16650003 0.16879213 0.17109665
000230 56 93 31 3e ec f5 33 3e b6 5b 36 3e b0 c4 38 3e
       0.1734136 0.1757428 0.17808422 0.1804378
000240 ce 30 3b 3e 10 a0 3d 3e 6c 12 40 3e de 87 42 3e
       0.18280336 0.1851809 0.18757027 0.18997142
000250 5e 00 45 3e e8 7b 47 3e 76 fa 49 3e 00 7c 4c 3e
       0.19238421 0.1948086 0.1972445 0.19969177
000260 80 00 4f 3e f2 87 51 3e 4e 12 54 3e 8e 9f 56 3e
       0.20215034 0.20462015 0.20710108 0.20959303
000270 ac 2f 59 3e a2 c2 5b 3e 66 58 5e 3e f8 f0 60 3e
       0.21209592 0.21460965 0.21713409 0.21966922
000280 4e 8c 63 3e 60 2a 66 3e 2a cb 68 3e a4 6e 6b 3e
       0.2222149 0.22477102 0.22733751 0.22991425
000290 ca 14 6e 3e 94 bd 70 3e fc 68 73 3e fa 16 76 3e
       0.23250118 0.23509818 0.23770517 0.24032202
0002a0 88 c7 78 3e a0 7a 7b 3e 36 30 7e 3e 26 74 80 3e
       0.24294865 0.24558496 0.24823079 0.25088614
0002b0 6c d1 81 3e ea 2f 83 3e 9c 8f 84 3e 7d f0 85 3e
       0.2535509 0.25622493 0.25890815 0.2616004
0002c0 8c 52 87 3e c4 b5 88 3e 22 1a 8a 3e a4 7f 8b 3e
       0.26430166 0.26701176 0.26973063 0.2724582
0002d0 46 e6 8c 3e 04 4e 8e 3e da b6 8f 3e c4 20 91 3e
       0.27519435 0.27793896 0.28069192 0.2834531
0002e0 c0 8b 92 3e ca f7 93 3e e0 64 95 3e fc d2 96 3e
       0.28622246 0.28899986 0.29178524 0.29457843
0002f0 1c 42 98 3e 3c b2 99 3e 58 23 9b 3e 6b 95 9c 3e
       0.29737937 0.30018795 0.30300403 0.30582747
000300 76 08 9e 3e 72 7c 9f 3e 5c f1 a0 3e 30 67 a2 3e
       0.3086583 0.31149632 0.31434143 0.3171935
000310 ec dd a3 3e 8c 55 a5 3e 08 ce a6 3e 63 47 a8 3e
       0.3200525 0.3229183 0.32579064 0.32866964
000320 96 c1 a9 3e 9e 3c ab 3e 78 b8 ac 3e 1e 35 ae 3e
       0.33155507 0.33444685 0.33734488 0.340249
000330 8f b2 af 3e c4 30 b1 3e bd af b2 3e 75 2f b4 3e
       0.34315917 0.34607518 0.34899703 0.35192457
000340 e8 af b5 3e 12 31 b7 3e f0 b2 b8 3e 7e 35 ba 3e
       0.35485768 0.35779625 0.36074018 0.36368936
000350 b6 b8 bb 3e 99 3c bd 3e 20 c1 be 3e 48 46 c0 3e
       0.3666436 0.36960295 0.37256718 0.3755362
000360 0e cc c1 3e 6d 52 c3 3e 60 d9 c4 3e e6 60 c6 3e
       0.37850994 0.38148823 0.38447094 0.38745803
000370 fc e8 c7 3e 9b 71 c9 3e c0 fa ca 3e 69 84 cc 3e
       0.3904494 0.39344487 0.39644432 0.3994477
000380 91 0e ce 3e 32 99 cf 3e 4c 24 d1 3e da af d2 3e
       0.40245488 0.40546566 0.40848005 0.4114979
000390 d8 3b d4 3e 42 c8 d5 3e 14 55 d7 3e 4a e2 d8 3e
       0.41451907 0.41754347 0.42057097 0.42360145
0003a0 df 6f da 3e d2 fd db 3e 1f 8c dd 3e c0 1a df 3e
       0.42663476 0.42967087 0.43270966 0.43575096
0003b0 b2 a9 e0 3e f2 38 e2 3e 7c c8 e3 3e 49 58 e5 3e
       0.43879467 0.4418407 0.44488895 0.4479392
0003c0 59 e8 e6 3e a8 78 e8 3e 31 09 ea 3e f0 99 eb 3e
       0.45099142 0.45404553 0.45710137 0.46015882
0003d0 e1 2a ed 3e 00 bc ee 3e 49 4d f0 3e ba de f1 3e
       0.46321777 0.46627808 0.46933964 0.4724024
0003e0 4d 70 f3 3e 00 02 f5 3e ce 93 f6 3e b3 25 f8 3e
       0.47546616 0.47853088 0.4815964 0.48466262
0003f0 ac b7 f9 3e b2 49 fb 3e c6 db fc 3e e1 6d fe 3e
       0.48772943 0.49079663 0.49386424 0.49693206

melspec.mel_scale.fb f4 [513, 128]
000000 00 00 00 80 00 00 00 00 00 00 00 00 00 00 00 00
       -0.0 0.0 0.0 0.0
000010 00 00 00 00 00 00 00 00 00 00 00 00 00 00 00 00
       0.0 0.0 0.0 0.0
000020 00 00 00 00 00 00 00 00 00 00 00 00 00 00 00 00
       0.0 0.0 0.0 0.0
000030 00 00 00 00 00 00 00 00 00 00 00 00 00 00 00 00
       0.0 0.0 0.0 0.0
000040 00 00 00 00 00 00 00 00 00 00 00 00 00 00 00 00
       0.0 0.0 0.0 0.0
000050 00 00 00 00 00 00 00 00 00 00 00 00 00 00 00 00
       0.0 0.0 0.0 0.0
000060 00 00 00 00 00 00 00 00 00 00 00 00 00 00 00 00
       0.0 0.0 0.0 0.0
000070 00 00 00 00 00 00 00 00 00 00 00 00 00 00 00 00
       0.0 0.0 0.0 0.0
000080 00 00 00 00 00 00 00 00 00 00 00 00 00 00 00 00
       0.0 0.0 0.0 0.0
000090 00 00 00 00 00 00 00 00 00 00 00 00 00 00 00 00
       0.0 0.0 0.0 0.0
0000a0 00 00 00 00 00 00 00 00 00 00 00 00 00 00 00 00
       0.0 0.0 0.0 0.0
0000b0 00 00 00 00 00 00 00 00 00 00 00 00 00 00 00 00
       0.0 0.0 0.0 0.0
0000c0 00 00 00 00 00 00 00 00 00 00 00 00 00 00 00 00
       0.0 0.0 0.0 0.0
0000d0 00 00 00 00 00 00 00 00 00 00 00 00 00 00 00 00
       0.0 0.0 0.0 0.0
0000e0 00 00 00 00 00 00 00 00 00 00 00 00 00 00 00 00
       0.0 0.0 0.0 0.0
0000f0 00 00 00 00 00 00 00 00 00 00 00 00 00 00 00 00
       0.0 0.0 0.0 0.0
000100 00 00 00 00 00 00 00 00 00 00 00 00 00 00 00 00
       0.0 0.0 0.0 0.0
000110 00 00 00 00 00 00 00 00 00 00 00 00 00 00 00 00
       0.0 0.0 0.0 0.0
000120 00 00 00 00 00 00 00 00 00 00 00 00 00 00 00 00
       0.0 0.0 0.0 0.0
000130 00 00 00 00 00 00 00 00 00 00 00 00 00 00 00 00
       0.0 0.0 0.0 0.0
000140 00 00 00 00 00 00 00 00 00 00 00 00 00 00 00 00
       0.0 0.0 0.0 0.0
000150 00 00 00 00 00 00 00 00 00 00 00 00 00 00 00 00
       0.0 0.0 0.0 0.0
000160 00 00 00 00 00 00 00 00 00 00 00 00 00 00 00 00
       0.0 0.0 0.0 0.0
000170 00 00 00 00 00 00 00 00 00 00 00 00 00 00 00 00
       0.0 0.0 0.0 0.0
000180 00 00 00 00 00 00 00 00 00 00 00 00 00 00 00 00
       0.0 0.0 0.0 0.0
000190 00 00 00 00 00 00 00 00 00 00 00 00 00 00 00 00
       0.0 0.0 0.0 0.0
0001a0 00 00 00 00 00 00 00 00 00 00 00 00 00 00 00 00
       0.0 0.0 0.0 0.0
0001b0 00 00 00 00 00 00 00 00 00 00 00 00 00 00 00 00
       0.0 0.0 0.0 0.0
0001c0 00 00 00 00 00 00 00 00 00 00 00 00 00 00 00 00
       0.0 0.0 0.0 0.0
0001d0 00 00 00 00 00 00 00 00 00 00 00 00 00 00 00 00
       0.0 0.0 0.0 0.0
0001e0 00 00 00 00 00 00 00 00 00 00 00 00 00 00 00 00
       0.0 0.0 0.0 0.0
0001f0 00 00 00 00 00 00 00 00 00 00 00 00 00 00 00 00
       0.0 0.0 0.0 0.0
000200 b3 a6 1d 3f 9a b2 c4 3e 00 00 00 00 00 00 00 00
       0.6158249 0.38417512 0.0 0.0
000210 00 00 00 00 00 00 00 00 00 00 00 00 00 00 00 00
       0.0 0.0 0.0 0.0
000220 00 00 00 00 00 00 00 00 00 00 00 00 00 00 00 00
       0.0 0.0 0.0 0.0
000230 00 00 00 00 00 00 00 00 00 00 00 00 00 00 00 00
       0.0 0.0 0.0 0.0
000240 00 00 00 00 00 00 00 00 00 00 00 00 00 00 00 00
       0.0 0.0 0.0 0.0
000250 00 00 00 00 00 00 00 00 00 00 00 00 00 00 00 00
       0.0 0.0 0.0 0.0
000260 00 00 00 00 00 00 00 00 00 00 00 00 00 00 00 00
       0.0 0.0 0.0 0.0
000270 00 00 00 00 00 00 00 00 00 00 00 00 00 00 00 00
       0.0 0.0 0.0 0.0
000280 00 00 00 00 00 00 00 00 00 00 00 00 00 00 00 00
       0.0 0.0 0.0 0.0
000290 00 00 00 00 00 00 00 00 00 00 00 00 00 00 00 00
       0.0 0.0 0.0 0.0
0002a0 00 00 00 00 00 00 00 00 00 00 00 00 00 00 00 00
       0.0 0.0 0.0 0.0
0002b0 00 00 00 00 00 00 00 00 00 00 00 00 00 00 00 00
       0.0 0.0 0.0 0.0
0002c0 00 00 00 00 00 00 00 00 00 00 00 00 00 00 00 00
       0.0 0.0 0.0 0.0
0002d0 00 00 00 00 00 00 00 00 00 00 00 00 00 00 00 00
       0.0 0.0 0.0 0.0
0002e0 00 00 00 00 00 00 00 00 00 00 00 00 00 00 00 00
       0.0 0.0 0.0 0.0
0002f0 00 00 00 00 00 00 00 00 00 00 00 00 00 00 00 00
       0.0 0.0 0.0 0.0
000300 00 00 00 00 00 00 00 00 00 00 00 00 00 00 00 00
       0.0 0.0 0.0 0.0
000310 00 00 00 00 00 00 00 00 00 00 00 00 00 00 00 00
       0.0 0.0 0.0 0.0
000320 00 00 00 00 00 00 00 00 00 00 00 00 00 00 00 00
       0.0 0.0 0.0 0.0
000330 00 00 00 00 00 00 00 00 00 00 00 00 00 00 00 00
       0.0 0.0 0.0 0.0
000340 00 00 00 00 00 00 00 00 00 00 00 00 00 00 00 00
       0.0 0.0 0.0 0.0
000350 00 00 00 00 00 00 00 00 00 00 00 00 00 00 00 00
       0.0 0.0 0.0 0.0
000360 00 00 00 00 00 00 00 00 00 00 00 00 00 00 00 00
       0.0 0.0 0.0 0.0
000370 00 00 00 00 00 00 00 00 00 00 00 00 00 00 00 00
       0.0 0.0 0.0 0.0
000380 00 00 00 00 00 00 00 00 00 00 00 00 00 00 00 00
       0.0 0.0 0.0 0.0
000390 00 00 00 00 00 00 00 00 00 00 00 00 00 00 00 00
       0.0 0.0 0.0 0.0
0003a0 00 00 00 00 00 00 00 00 00 00 00 00 00 00 00 00
       0.0 0.0 0.0 0.0
0003b0 00 00 00 00 00 00 00 00 00 00 00 00 00 00 00 00
       0.0 0.0 0.0 0.0
0003c0 00 00 00 00 00 00 00 00 00 00 00 00 00 00 00 00
       0.0 0.0 0.0 0.0
0003d0 00 00 00 00 00 00 00 00 00 00 00 00 00 00 00 00
       0.0 0.0 0.0 0.0
0003e0 00 00 00 00 00 00 00 00 00 00 00 00 00 00 00 00
       0.0 0.0 0.0 0.0
0003f0 00 00 00 00 00 00 00 00 00 00 00 00 00 00 00 00
       0.0 0.0 0.0 0.0

layer1.conv.weight f4 [16, 1, 3, 3]
000000 bb f9 8f bd 7e 1b a2 bd e1 01 50 be 04 80 8d be
       -0.07030054 -0.079154 -0.20313217 -0.2763673
000010 e8 5d 8e be 84 3b 2e be 1b ab e8 bd 67 6b ab bd
       -0.2780602 -0.17014891 -0.11360761 -0.08370095
000020 6d d6 23 be 0b 73 d7 bc fc ec 24 bc 82 52 a4 3e
       -0.15999766 -0.026299974 -0.010066267 0.32094198
000030 8b b1 84 3e 81 25 6e be d2 06 3f 3e 6f e5 bc 3b
       0.25916705 -0.23256494 0.18654945 0.0057646553
000040 33 24 81 3c 73 f5 63 3e 94 e8 0f be 2d 1b 3d be
       0.015764331 0.222616 -0.14053565 -0.18467398
000050 b2 24 21 be 1e 1c 34 3e 07 6d fa 3c 5b 5d 83 be
       -0.15736654 0.17588851 0.030569566 -0.25657162
000060 89 6e a8 be 79 ea 5f 3e 05 c1 0e be 0e 21 02 3e
       -0.32896832 0.21866788 -0.13940819 0.12707922
000070 81 a2 5a 3d a7 af 1e be ed 37 7f bd 46 a1 99 3e
       0.053377632 -0.15496694 -0.062309194 0.30005854
000080 8f 6b 96 be 46 ac c3 3d a3 0f 5f 3e cc ab 8d be
       -0.29378936 0.09554343 0.21783309 -0.27670133
000090 06 2c 7c 3e 47 ab 15 3e 9f 64 0e bc 0b 71 88 be
       0.24626169 0.14616118 -0.008690982 -0.26648745
0000a0 b7 16 a4 3c 50 17 ab bd af 46 16 3c 01 c7 c4 3e
       0.020030363 -0.08354056 0.009172126 0.38433078
0000b0 d4 e4 41 bd f7 aa 82 bd 29 3b b0 3e d4 c3 18 bd
       -0.047337368 -0.06380265 0.34420136 -0.03729613
0000c0 d4 74 ab be 03 8f 55 3e 12 1d c1 bd 62 31 2a 3e
       -0.3348757 0.20855336 -0.09429373 0.166204
0000d0 94 b6 2e 3d 01 a0 fa bc 2e 87 07 be 42 5b 83 bc
       0.04265459 -0.030593874 -0.1323516 -0.016034726
0000e0 f8 a7 a8 be 71 96 57 bd 77 f0 73 bb 0c 09 e5 3d
       -0.3294065 -0.052633706 -0.0037222186 0.11183366
0000f0 11 54 86 3d 7b 1c 0e 3e 8f 91 b5 be f4 d1 b1 be
       0.06559003 0.13878052 -0.35462615 -0.34730494
000100 0f 92 a6 3d 88 79 4d 3e 05 e0 44 be e0 2b 1c bb
       0.08133327 0.20065892 -0.19226082 -0.0023829862
000110 0c 92 9e bc 1a cc 5e 3e c6 15 f6 3d f9 90 b9 be
       -0.01935675 0.21757546 0.12015872 -0.36243418
000120 a4 4c 65 be f2 74 51 bd a4 bf b3 be a0 99 76 be
       -0.22392517 -0.05113692 -0.35107148 -0.24082041
000130 e8 25 7a 3d 29 6a e5 bd 4e 7a 7e be 00 e0 81 3e
       0.061071306 -0.11201889 -0.24851343 0.2536621
000140 7e 62 79 3d f9 b9 b1 bc 9c 93 6d 3d 4d 65 98 3e
       0.060884945 -0.021695124 0.0580021 0.29764786
000150 6f 06 a2 3e cb 43 79 bd df f9 92 be 05 bf 6c bd
       0.31645533 -0.060855668 -0.28706262 -0.057799358
000160 1f 4e 76 bd fe 99 e6 3d 9a 16 22 3e d5 32 8c 3d
       -0.060133096 0.112598404 0.15828934 0.06845633
000170 61 0d cd bc 1a 7e 73 3e bc a8 51 be 3a fd a6 bd
       -0.025030794 0.23778573 -0.20474523 -0.08153768
000180 93 db 79 3e 30 3d ab 3c 66 71 88 bd 69 6a c3 bd
       0.24400167 0.0209032 -0.06662254 -0.095417805
000190 cd 17 9c 3e 49 ed 78 3e ae b2 2b 3e f6 60 3e 3c
       0.3048691 0.24309267 0.1676738 0.011619797
0001a0 84 e2 5c 3e 72 a6 5e 3e c1 bf fd 3d be 3d af 3e
       0.21570784 0.21743181 0.1239009 0.34226793
0001b0 aa 95 85 3e 2e a5 87 bc a4 96 92 be ff 6b 6f be
       0.26090747 -0.016558256 -0.28630555 -0.23381041
0001c0 47 e0 1b be e4 d1 8e 3e 2f 20 54 be ae 7c a8 be
       -0.15222274 0.2789451 -0.20715402 -0.32907623
0001d0 df 90 39 be 9e d2 29 be 88 4a 97 3e 0f 41 1a be
       -0.1812167 -0.1658425 0.2954905 -0.1506388
0001e0 74 e9 44 3d 40 32 8b be 28 ca 0b be 99 da 54 bd
       0.0480742 -0.27186775 -0.13651335 -0.051966283
0001f0 18 70 38 bd 4c 0e b2 3d 80 dd 8b 3e 92 02 52 3e
       -0.045028776 0.08694133 0.2731743 0.20508793
000200 f6 18 4f be 1d 3c 87 be 3b 3c 7a bd 75 08 90 be
       -0.20224366 -0.2641305 -0.061092597 -0.28131452
000210 8b 5b bb 3e da c6 89 3e a7 4a 91 be c5 f3 5f 3e
       0.3659328 0.26909524 -0.28377268 0.21870334
000220 88 eb da bc 89 6c 97 be 42 62 f5 3d 84 f8 88 3e
       -0.026723638 -0.29574993 0.11981632 0.26752102
000230 ec 48 08 be 80 ac a7 3e a8 d3 e5 3d 1c 4b c8 bd
       -0.13309067 0.32748795 0.11222011 -0.09779951

layer1.conv.bias f4 [16]
000000 f5 d5 38 3e 20 8f 96 be 3f fb 44 3e b9 9f 57 be
       0.18050368 -0.2940607 0.19236468 -0.21057023
000010 ff e1 49 3d 5e 25 96 3e 29 71 37 be 82 fa 49 3e
       0.049287792 0.29325384 -0.17914261 0.19724467
000020 49 77 58 be 01 a2 8a 3d 32 9d a0 bd 7c 35 ab 3d
       -0.21139254 0.06769181 -0.078424826 0.08359811
000030 c4 fa 61 be 67 6a 9d 3d 87 6b 15 bc 6f 54 55 be
       -0.22068316 0.0768631 -0.009119875 -0.2083299

layer1.bn.weight f4 [16]
000000 69 42 81 3f 90 fa 72 3f 8a a4 79 3f 18 0e 89 3f
       1.0098392 0.9491358 0.9751669 1.0707426
000010 ac 81 7a 3f d0 45 7a 3f fd 75 7d 3f 69 37 7e 3f
       0.97854114 0.97762775 0.9900816 0.993033
000020 3d 9c 79 3f 72 03 7f 3f e3 e4 7c 3f 01 b4 72 3f
       0.97504026 0.9961463 0.98786753 0.94805914
000030 fe dc 84 3f 95 8f 85 3f 45 1d 81 3f 0e e5 7f 3f
       1.0379941 1.0434443 1.0087057 0.99958885

layer1.bn.bias f4 [16]
000000 dc 7b 0a 3c 52 ff 8a bc 9e 57 04 bc bb ad 05 3d
       0.008452382 -0.01696745 -0.00807753 0.032636385
000010 49 17 2e bc 99 b0 7f 3c a6 f7 52 bc 4c 8c 68 39
       -0.010625669 0.015606069 -0.012876427 0.00022177509
000020 ca 4c 0f bd 83 c4 1e 3d 8a dc ea bc 05 63 0e bc
       -0.03498534 0.038761627 -0.028669614 -0.0086906
000030 c9 24 67 bd 7a 7f 1b 3d 28 12 bf 3c 64 8b 41 bd
       -0.056431565 0.037963368 0.023324087 -0.047252074

layer1.bn.running_mean f4 [16]
000000 76 59 11 3e 1f fb 8d be 68 b7 26 3e 88 c9 61 be
       0.14194283 -0.27730653 0.16280901 -0.22049534
000010 f2 86 8c 3d 87 77 92 3e dc 1f 4e be b2 e4 37 3e
       0.06861676 0.28606817 -0.20129341 0.17958334
000020 f8 b8 7d be d7 c9 93 3d 9f 31 98 bd 2d bb 0d 3e
       -0.24777591 0.07216232 -0.074313395 0.13840933
000030 d5 3c 67 be 02 17 80 3d d1 39 20 bc b8 40 3f be
       -0.225818 0.062543884 -0.0097794095 -0.18677032

layer1.bn.running_var f4 [16]
000000 5b f5 e0 3f f0 4f 04 3f 05 47 f6 3e 65 ac 90 3d
       1.7574877 0.51684475 0.4810106 0.07064132
000010 00 fd 07 3e 56 33 c1 3d a0 99 80 3e 56 18 eb 3d
       0.13280106 0.0943362 0.25117207 0.11479251
000020 7d 9c 1d 3f 08 57 a8 3d da a3 56 3e c5 c3 00 40
       0.6156691 0.08219725 0.20960942 2.0119488
000030 f5 51 2b 3f 4f 46 0e 3e 91 9d d6 3d 01 b4 c3 3e
       0.6692193 0.13894008 0.10479272 0.3822327

layer2.conv.weight f4 [16, 16, 3, 3]
000000 a2 23 45 bc 0f cb 7f bd 95 b3 95 bd b7 c7 3f bd
       -0.012032421 -0.06244951 -0.07309643 -0.046821322
000010 88 f1 d9 bc b4 0d 00 3e f6 7e e5 bd c5 32 7c bd
       -0.026604429 0.12505227 -0.112058565 -0.061571855
000020 83 45 b5 3d 70 56 ea 3b 06 4c 25 bd 98 26 07 3d
       0.08851149 0.0071514174 -0.040355705 0.03299579
000030 7b d6 01 bd 1b 6b 50 3d e4 aa 38 3c 51 55 98 3d
       -0.031698685 0.050883394 0.011271212 0.07438148
000040 22 60 f1 bd 94 18 18 3d db 2e bb bd bc c3 98 bd
       -0.11785914 0.037132815 -0.09139796 -0.07459208
000050 32 d4 cb bd ff 05 63 3b 16 2f 0b 3d ed 51 24 3d
       -0.099525824 0.0034641025 0.03398045 0.040117193
000060 bf 74 8e bc 70 7f 1b bd c7 71 4b 3d ee 12 c9 3d
       -0.017389653 -0.03796333 0.049669053 0.09818064
000070 94 8c de 3c 2d 50 60 3d 77 d6 bf bc 58 de 7e 3d
       0.027166642 0.05476396 -0.023417694 0.062223762
000080 1c b8 b5 3b 8e 00 cd bd e7 bb e3 bc a3 94 9c bc
       0.005545629 -0.100098714 -0.02779956 -0.019113844
000090 4d 00 93 bd 8b 03 3e 3d e1 9e 02 3d dc 25 ac 3d
       -0.07177792 0.046390098 0.0318898 0.084056586
0000a0 8b b7 e3 3d 24 b7 f0 bd af 20 6e 3d ee 55 ad bc
       0.111189924 -0.11753681 0.05813664 -0.021159139
0000b0 fd 23 85 bd 68 e5 3c 3d b5 e4 a1 bd 2e 75 fb bc
       -0.06501005 0.046117216 -0.079049505 -0.030695524
0000c0 7d 76 89 bd 71 21 81 3d c4 d8 89 3d c1 d7 53 bd
       -0.06712053 0.063052066 0.06730798 -0.05171943
0000d0 1b bb 98 3d 6c 9a b8 bc 32 23 a2 bd 58 ba fc ba
       0.074575625 -0.022534572 -0.07916869 -0.0019281609
0000e0 7c 4c 81 3d 06 9e e5 bd 4b bd 4f bc ee e1 65 3d
       0.06313416 -0.11211781 -0.012679408 0.056123666
0000f0 4c 0b 63 bd c8 bc cf bc 36 76 a3 3c 28 ad bf bd
       -0.055430695 -0.025358573 0.019953828 -0.09359199
000100 e2 81 82 3d 93 1c 71 bd 9b 6b c1 bd c4 c0 06 bd
       0.063724294 -0.05886514 -0.09444352 -0.03289868
000110 d1 2e 3c bd 5d a9 1f 3c 08 fa 29 bd fe 7d 5c bd
       -0.045943085 0.009744969 -0.041498214 -0.053831093
000120 24 5e ba bc a1 68 fc bd 36 58 6a 3d 23 62 e2 bd
       -0.022749968 -0.12324644 0.05721303 -0.11053874
000130 9f 53 ab bd 1f 3a 84 3d 77 6f 39 3d 3e 82 07 3d
       -0.08365559 0.06456398 0.045272317 0.033083193
000140 80 36 35 3c 03 c7 70 bc 4f 7c 9e bc 6e 39 93 3c
       0.011060357 -0.014695886 -0.019346384 0.01797172
000150 eb e1 ec 3d 4f fe 86 3d d8 56 a9 3c d5 b4 77 3d
       0.11566528 0.06591474 0.020671293 0.06047519
000160 78 fe 9a bd 0e b5 04 3d 9a 26 8c 3d 62 e5 da 3c
       -0.07568067 0.03239923 0.068433 0.026720706
000170 ac 11 b1 3a c4 a9 57 bc df 80 dd bc 9a 85 fd 3c
       0.0013509295 -0.013163034 -0.02703899 0.030947495
000180 2d a7 8e bd 3e 21 c3 3d 7b 91 5b 3d 6a 7d cc 3c
       -0.0696548 0.09527825 0.053605538 0.024962146
000190 8f 84 96 bd 80 00 1b 3d 6b 8f 0e bd 67 ed 71 3b
       -0.07349502 0.037842274 -0.034804743 0.0036915184
0001a0 37 bb 82 3d 75 36 e0 bc 59 f9 b0 3d 97 84 a9 bd
       0.06383365 -0.027369717 0.08641309 -0.08277243
0001b0 98 81 7d bc 29 fc 22 bc 4d 4e b4 bb 43 0e 4a bc
       -0.015472792 -0.009947815 -0.0055024982 -0.012332502
0001c0 59 33 c3 3d 9e 5c 22 3d e2 bb ef bc 65 7c d5 bc
       0.09531278 0.039639108 -0.029264394 -0.026060292
0001d0 98 a9 cc bc 25 3d f7 3b b3 57 aa bd 29 66 15 3d
       -0.024983212 0.007545131 -0.083175085 0.03647438
0001e0 b0 46 7a bd ad 41 2d 3d e9 5d c8 3c 64 3c 80 bd
       -0.06110257 0.04229896 0.024458842 -0.062615186
0001f0 83 aa 9e bc b6 76 a2 3c 29 2d 02 3d 8d 63 c0 3d
       -0.019368416 0.019831996 0.03178135 0.09393988
000200 af 92 e4 bd 14 48 af bc b6 cc 05 3e b5 82 f6 3c
       -0.1116079 -0.021396674 0.13066372 0.030091623
000210 98 69 5d 3d b1 bf 3b 3d 40 cb 1f bd 92 46 93 3b
       0.05405578 0.045837108 -0.039012194 0.0044944966
000220 65 7f a0 3d 16 aa 0e bd c0 0e 5b bd 79 62 af bc
       0.078367986 -0.034830175 -0.053480864 -0.02140926
000230 c8 ec 96 3d 6e 95 79 bc cd 94 32 bd b9 81 7c 3d
       0.07369381 -0.015233381 -0.04359894 0.06164715
000240 29 51 d9 3d 1e 49 01 3d a7 1e 74 3c 96 ef 95 3d
       0.10611183 0.03156387 0.014899886 0.07321088
000250 c4 40 ad 3d 77 0c de 3c 6b ec 94 3d 24 37 e8 3d
       0.08459619 0.027105553 0.07271656 0.11338642
000260 31 6d ac bc b4 1f bf bc 2d 15 34 3d 4e a2 42 3c
       -0.02104816 -0.023330547 0.043965507 0.011879517
000270 fc 68 03 be 1f 34 8e 3c c8 47 ca bc b4 37 82 3d
       -0.12833017 0.017358838 -0.024692431 0.06358281
000280 2b de c7 3c f0 7f b6 3c 39 6e fa 3d 4c 50 91 3d
       0.02439793 0.022277802 0.122280546 0.070953935
000290 92 e2 5b bd 3e e3 26 3c 4b 7c f8 bc a2 48 dc 3a
       -0.05368287 0.010186015 -0.030332705 0.0016806314
0002a0 5a ea 3f 3d 80 2e b9 bd ae aa 40 3c db 24 0e bd
       0.046854354 -0.09042072 0.011759443 -0.034703117
0002b0 cc 9d f5 bd a6 46 25 bb 1d e8 59 3d 4d 64 8c bd
       -0.11992988 -0.0025219112 0.053199876 -0.06855068
0002c0 df 79 56 bd 80 24 8d 3d 9c ce 97 3d c1 b6 f4 bd
       -0.05236232 0.068917274 0.074124545 -0.1194892
0002d0 ac fc e3 bc 25 fe 23 bd 05 0a 84 bc 58 a6 b2 bc
       -0.027830444 -0.040037293 -0.016118059 -0.021807835
0002e0 8e bc 32 bd 98 22 8e 3d 11 6b b6 bd 65 cf 37 bd
       -0.04363685 0.06940192 -0.0890714 -0.04487552
0002f0 86 46 93 3a e9 cc 70 bd 8d ad 81 bd 5b 60 94 bc
       0.0011236228 -0.058789168 -0.0633193 -0.018112352
000300 40 84 78 3a b8 81 01 bd c1 69 15 3c b3 14 ec bc
       0.0009480156 -0.03161785 0.009119452 -0.028818464
000310 ed 75 68 3d 71 b8 a2 bd 58 01 c3 3d 17 fd 97 3d
       0.056753088 -0.07945336 0.09521741 0.0742132
000320 ba 31 c9 3c c6 16 ae 3d e3 0f b9 3c cd c2 ba 3c
       0.024559844 0.085004374 0.022590583 0.022797966
000330 4f 41 7d 3d 83 0a 0e bd 38 ff 88 3d 51 65 96 3d
       0.06182986 -0.034677994 0.06689304 0.07343543
000340 fd 49 c4 3d 21 ae b6 bc cf 87 aa bc 6e 68 a4 ba
       0.09584425 -0.022299828 -0.020816712 -0.001254333
000350 94 69 b0 3d c2 a5 52 bc ac 2d 9f 3c a5 87 e7 bb
       0.086138874 -0.012856903 0.019430958 -0.0070657306
000360 ec 48 85 3d a7 a4 ca bc 2b 20 56 bb 57 63 c4 3d
       0.06508049 -0.024736715 -0.0032672982 0.0958926
000370 a5 6e 24 3c 70 72 10 bc 46 a1 05 3d 84 13 f0 3d
       0.010036145 -0.0088163465 0.032624505 0.11722472
000380 dc f0 4c 3d 87 ca 06 bd 83 8d 3b bd 75 11 c3 3c
       0.05003439 -0.03290799 -0.045789253 0.023812035
000390 78 31 3d bc 98 f5 2e 3d a8 77 8c bd 1e a5 b9 bc
       -0.011547439 0.042714685 -0.0685876 -0.022661742
0003a0 2a a1 86 3d 12 f7 60 bd a5 4d 0d bd 6f cf b8 3c
       0.06573708 -0.054923125 -0.034497876 0.02255985
0003b0 ed 1b ae 3d 22 19 e7 bd 76 1b c9 bd 5e 5e 92 3c
       0.0850142 -0.112840906 -0.09819691 0.017867263
0003c0 e0 8a 92 3b 89 11 04 bc cf 03 ad bd 6f cb f1 bb
       0.0044721216 -0.008060821 -0.08447992 -0.0073789875
0003d0 0d 3c 89 3d 04 e3 a2 3d a2 a1 9a bd d5 4b 8a 3c
       0.06700907 0.07953456 -0.0755036 0.016881863
0003e0 82 6e e4 3b 67 b8 d8 3b 12 f0 4f bd fd ab 9d bc
       0.0069711814 0.0066137793 -0.05076606 -0.01924705
0003f0 35 db cf 3d c0 6c 4e 3d 77 bd 99 bc 0d 97 6b 3d
       0.10149232 0.05039668 -0.018767102 0.0575171

layer2.conv.bias f4 [16]
000000 34 39 60 bd 83 08 91 3c f0 78 50 3c c0 39 8a 3c
       -0.054742053 0.017704254 0.012724146 0.01687324
000010 9d 90 62 3d cb 6e 0b 3e 57 8a 94 3d c2 fd d0 bc
       0.055313695 0.13616483 0.07252949 -0.025511626
000020 54 40 77 3d e2 aa f7 3c 95 d9 cc bd a4 fd 41 3d
       0.060364082 0.03023285 -0.10002438 0.04736103
000030 18 cf 8c 3c d4 9c 27 bb bc 44 39 bd 5d b0 8b bd
       0.017188594 -0.0025575655 -0.045231566 -0.06820748

layer2.bn.weight f4 [16]
000000 d3 3a 79 3f 7d df 7c 3f 01 04 7b 3f dd c9 83 3f
       0.97355384 0.98778516 0.98052984 1.0295979
000010 a8 b5 7b 3f 9c e0 71 3f fa e8 78 3f e7 5e 7c 3f
       0.9832406 0.9448335 0.97230494 0.9858231
000020 36 56 82 3f 35 95 70 3f 55 a5 85 3f 35 1c 80 3f
       1.018256 0.9397767 1.044108 1.0008608
000030 05 49 7b 3f 4b 19 83 3f 9f 75 81 3f d8 8d 82 3f
       0.98158294 1.0242094 1.011402 1.0199537

layer2.bn.bias f4 [16]
000000 11 56 31 3d d7 8f d6 bc c2 79 6a bc b3 eb 89 3c
       0.04329497 -0.026191635 -0.014311256 0.016836023
000010 05 27 8b bb 66 40 a7 bd 6e b1 47 bd 5d 5d 1e bd
       -0.004246595 -0.0816658 -0.048753195 -0.038663257
000020 07 5e c1 bc e6 25 f0 bc 69 37 5d 3d a9 33 e5 3c
       -0.023604406 -0.029314946 0.05400792 0.027978735
000030 6e 19 fc 3c 90 66 56 3c fc b2 e9 bc 14 39 89 3b
       0.030773845 0.013085976 -0.02852773 0.0041877124

layer2.bn.running_mean f4 [16]
000000 2b 2d f1 bd 1c e4 04 3f 96 f6 b7 bc be 1f d9 bf
       -0.11776193 0.5191057 -0.022456449 -1.6962812
000010 61 2e d2 3e 02 53 8a be 33 71 db 3e 79 b0 45 3f
       0.4105101 -0.27016455 0.42859802 0.772224
000020 b4 a6 b6 3e ae 4f 49 bf 16 c8 82 3f 8b a1 6c bf
       0.3567406 -0.78637207 1.0217311 -0.92433995
000030 46 40 be 3e f2 b0 d8 3e 72 58 38 3f 03 a8 2d 3e
       0.37158412 0.423225 0.72009957 0.16958623

layer2.bn.running_var f4 [16]
000000 13 90 69 3f d7 e5 3b 40 4b 95 d0 3e fe 90 76 3f
       0.91235465 2.9359033 0.40738901 0.9631499
000010 35 c5 e8 3e 81 a3 8e 3f 8c 5d c7 3f a4 d8 3f 3f
       0.45462957 1.1143647 1.5575423 0.7493994
000020 ff 84 87 3f a3 6b 70 3f 28 9b 96 3f 92 88 ae 3e
       1.0587462 0.9391424 1.17661 0.3408857
000030 28 8d 9d 3f 4f 14 c8 40 97 52 09 3f a7 c3 81 3f
       1.2308702 6.252479 0.5364165 1.0137833

layer3.conv.weight f4 [32, 16, 3, 3]
000000 67 e9 24 3d 91 16 81 bd 78 a9 a1 bd db a0 cc 3c
       0.040261652 -0.06303132 -0.07893652 0.024979046
000010 57 87 38 bd 9e ad b4 bd 3f cb 9e 3b b6 6e 00 3d
       -0.045050945 -0.08822177 0.004846006 0.031355582
000020 09 34 bf bb c1 02 9f bc 9f e2 94 bd ac 9a 85 3c
       -0.0058350605 -0.019410493 -0.07269787 0.016309105
000030 39 28 d0 bc 95 ff 45 3d f2 57 19 3d c8 08 21 3b
       -0.025409805 0.048339445 0.037437387 0.0024571884
000040 a4 7e 80 3d 0e 28 90 bc f0 d8 4f bd 75 d0 10 3d
       0.06274155 -0.017597225 -0.050743997 0.03535505
000050 74 64 e2 bd 8c d4 bf bd 3e 9a 14 3d ae e8 1a 3d
       -0.11054316 -0.09366712 0.03627991 0.037819557
000060 2b d7 03 3d eb 57 a9 bd 06 62 72 bd 95 cf 23 3d
       0.032187622 -0.08268722 -0.059175514 0.039992888
000070 2c 8d ec 3c 96 f0 08 bd 72 81 00 bd 18 28 08 3d
       0.02887591 -0.033432566 -0.03137345 0.03324136
000080 0e eb 8e 3d ca 3a 76 3c 93 5e 7f 3c 36 65 53 3d
       0.06978427 0.015028665 0.015586513 0.051610194
000090 b0 95 21 bc b9 5c e6 bc 49 06 33 bd 1a 1a 17 bd
       -0.009862348 -0.028120385 -0.043707166 -0.036890127
0000a0 db 91 cf bd b3 0c ff bc 97 33 83 3d 8b b6 1c 3d
       -0.101352416 -0.031133985 0.06406324 0.038260024
0000b0 96 fc 7d bd 01 07 64 bd b2 bb fb 3c 31 e1 c2 bc
       -0.062008463 -0.055670742 0.030729149 -0.02378902
0000c0 38 c9 65 bd 8c 1b 11 3c 25 80 8d 3d 53 1f 12 3d
       -0.0561001 0.008856665 0.06909207 0.035674404
0000d0 41 f2 ef bd c3 ca 74 bd 0d 39 0e bd 2b ed 5b bc
       -0.11716128 -0.05976368 -0.034722377 -0.0134232445
0000e0 b3 f4 d4 bc 35 f8 56 3c 52 12 da bb f8 c8 0e bd
       -0.025995588 0.013120701 -0.006655016 -0.034859627
0000f0 55 67 9f b8 12 91 69 bd 87 b0 78 bd 7f 09 26 bd
       -7.600958e-05 -0.057023115 -0.060715225 -0.0405364
000100 33 ad c8 bd ea 31 8f bd 29 5a 71 bd a0 7b 15 bd
       -0.0979866 -0.06991942 -0.058923874 -0.03649485
000110 d7 51 79 3d d9 96 24 bd b7 a4 7b 3a 28 1d b1 bd
       0.060869064 -0.040182922 0.00095994346 -0.08648139
000120 89 8e 68 bd c9 17 90 bb a2 1b 9b 3d 0f 6c f7 ba
       -0.056776557 -0.0043973667 0.0757363 -0.0018876808
000130 37 8a 52 3d c3 2e 09 bd e8 c7 b9 bd 0e 16 4e bd
       0.051401343 -0.03349186 -0.09071332 -0.050314
000140 bd fe cc bc 6e bb af 3c cd 55 83 bc 3d 76 ae bd
       -0.025023812 0.021451678 -0.016032124 -0.08518646
000150 59 95 e7 bc e3 ec 0c bd 6c 21 99 3b fd 24 09 bd
       -0.028269457 -0.0344056 0.0046731737 -0.03348254
000160 75 fc a9 bd c1 40 2c bd b3 8a 81 bd 33 2b 09 bd
       -0.083001055 -0.04205394 -0.06325283 -0.033488464
000170 c8 16 35 3c 05 da 9d bd e2 c2 8e bd bb d3 7b 3d
       0.011052795 -0.077075996 -0.06970765 0.06148122
000180 c8 9c 4e bc 37 c0 1c bb 3b ab f2 3c 9a ac 83 3d
       -0.012610622 -0.002391828 0.029622665 0.064294055
000190 ac 02 c3 bc bd 8e 8f 3d ea e6 8b 3d 52 53 85 3d
       -0.023804985 0.07009647 0.06831153 0.06510033
0001a0 72 af 8c bd 98 21 97 3b 37 ca a4 bd 3b 6e 7d 3c
       -0.06869401 0.004612159 -0.08046382 0.0154681755
0001b0 6c 10 4f 3d 65 a7 fa bc 97 6d 01 3c 90 6f 1b 3a
       0.05055277 -0.030597398 0.007899663 0.0005929405
0001c0 08 48 7a bd 30 c5 10 bd e6 60 b0 bd 48 38 fb bd
       -0.06110385 -0.035344303 -0.08612232 -0.12266594
0001d0 34 ad 1c bd 25 78 bf bd 3b 40 27 3d 17 c2 dd bb
       -0.038251117 -0.093490876 0.04083274 -0.006767522
0001e0 fb 13 23 bd b2 68 55 bd ad 32 4d bd 37 2f 68 bd
       -0.039813977 -0.0521018 -0.050097156 -0.056685653
0001f0 a6 9e 91 3c da ab fa 3d c4 56 5b bc 91 b4 63 bd
       0.017775845 0.12239809 -0.013387386 -0.055592123
000200 af d4 81 bd 47 98 cb bd 2e b4 3b bd e0 10 dc 3d
       -0.06339394 -0.09941154 -0.04582613 0.10745406
000210 a3 7d 2a bc 27 31 85 bc 09 49 22 bd 57 bd 99 bb
       -0.010405931 -0.01625879 -0.039620433 -0.0046917605
000220 29 37 81 bd 28 19 21 bd e7 45 ba bd 51 4e 30 bb
       -0.06309349 -0.03933063 -0.09095364 -0.002690215
000230 d7 58 bf bd 9c df cb bd 9f 35 e9 3b 5a 39 6f 3c
       -0.09343117 -0.099547595 0.007116988 0.014601076
000240 38 d6 99 3c 59 2f 73 3c f0 86 12 be bf e2 95 bd
       0.018778905 0.0148428315 -0.14309287 -0.07318639
000250 29 6d 8c bd ba cd b0 bd 48 1d 51 3d b4 81 17 3d
       -0.06856758 -0.08632989 0.051053315 0.03698893
000260 d3 58 ef bd f8 db cd 3c e7 c0 ab 3b 7b 7a 08 bc
       -0.11686864 0.025129303 0.0052415016 -0.008329983
000270 4a 88 49 bd d7 96 00 bd a8 57 03 bc 80 dc 97 3d
       -0.04920224 -0.031393852 -0.008016504 0.07415104
000280 88 fc 63 bd 6c 4e 10 3d cb 93 8b bd 28 36 a9 bd
       -0.055660754 0.03523104 -0.06815299 -0.082622826
000290 bb 96 3f 3d e7 fe 1d bd 62 be a1 3d ec 04 64 bd
       0.046774607 -0.038573172 0.07897641 -0.055668756
0002a0 28 ce 8a 3d ee c6 6b bc 0a a3 c9 bd 42 84 26 bd
       0.067776024 -0.01439069 -0.0984555 -0.040653475
0002b0 82 cd f3 3d 20 41 0a 3e e5 1d 9c bd 24 a0 69 3d
       0.11904432 0.13501406 -0.076228894 0.057037488
0002c0 e8 64 47 bc 4e fc 6d bd e5 d4 e9 bc 9c 97 ba bd
       -0.012170054 -0.058101945 -0.028543899 -0.091109484
0002d0 96 ed 63 3b f5 06 86 3d e0 3a 56 bd d0 40 9c 3b
       0.0034779063 0.06544296 -0.05230224 0.0047684684
0002e0 ac b3 98 bd cc 70 4f bc cb 22 e2 bd 76 c1 42 bb
       -0.07456145 -0.01266117 -0.110417925 -0.0029717362
0002f0 fb b0 b4 bc e5 68 a0 3c 99 b5 be 3d b9 ec 6c 3d
       -0.022057047 0.019581268 0.09311981 0.057842944
000300 4a 4d 83 bc fe 7a 98 3d 07 8b 69 3d c4 5f 45 bc
       -0.016028065 0.07445334 0.057017352 -0.012046758
000310 31 a4 a4 3d 78 d2 dc bc 31 d7 c1 bd 3e ab ea bd
       0.080391295 -0.026955828 -0.09464873 -0.11458443
000320 2a 41 b8 3c 26 d1 8e bc c3 31 de 3c 42 99 9a bc
       0.02249201 -0.017433714 0.027123338 -0.018871907
000330 2a c1 da bd 1f bd 82 3c f5 f7 6f 3d bc cf 23 3d
       -0.10681374 0.01595932 0.05858608 0.039993033
000340 b0 34 35 bd ac cb a6 3c 63 74 a4 3c 98 70 18 bd
       -0.0442397 0.02036079 0.020075029 -0.037216753
000350 fd 30 70 bd 3b 4c 8b 3d 1b b0 4a 3c 14 5c 89 bc
       -0.05864047 0.06801649 0.012371088 -0.01676754
000360 9e e2 63 3d 17 93 e4 bd da bf d6 bb 8d 8e 49 3d
       0.05563604 -0.11160868 -0.006553632 0.049208213
000370 a7 43 b9 bd 4b 4c b5 bc ec 89 17 3d 85 91 c6 3d
       -0.09046107 -0.022131106 0.036996767 0.096957244
000380 ac b5 fa bc bc 09 2c bd f7 00 e7 bc 8f bc 5c 3d
       -0.030604206 -0.04200147 -0.028198702 0.05389076
000390 3a 5b fe bc 5e 31 2b 3d 27 76 9e 3c 48 5a 99 bc
       -0.03104936 0.041795127 0.019343449 -0.018719807
0003a0 cc 8b 96 3d d3 ed b6 bc 46 2a d9 3d b0 40 bc bc
       0.07350883 -0.0223302 0.10603766 -0.022980064
0003b0 43 3f f0 3d 82 71 34 bc e4 43 b5 bd 0b f9 ec 3d
       0.11730816 -0.0110133905 -0.0885084 0.11570939
0003c0 7a e3 4a 3d 8f 35 5f 3c 5d 1e 98 bc 2c cd d6 3d
       0.049533345 0.013623609 -0.018569166 0.10488352
0003d0 4e ce 0a bd 1c 16 a9 3d b5 b0 b1 ba bd e5 4c bd
       -0.033888154 0.0825617 -0.0013556691 -0.050023783
0003e0 24 12 11 3d d4 c2 e2 3b 54 32 eb bc f2 77 09 bc
       0.03541769 0.006920198 -0.028710522 -0.008390414
0003f0 08 71 07 3e a1 81 09 3d a7 3e 27 bd 38 63 15 bd
       0.13226712 0.03357089 -0.040831234 -0.036471575

layer3.conv.bias f4 [32]
000000 92 95 8f bc f9 72 7b bd 62 2f e5 3c ff 09 e6 bd
       -0.017527375 -0.061388943 0.027976695 -0.11232375
000010 88 72 55 bb 94 3f ac 3c 58 47 a0 3d a2 d8 86 bc
       -0.0032569487 0.02102641 0.07826108 -0.01646072
000020 4a c7 b5 bc d1 29 06 3d 46 c9 93 bd 85 23 45 3d
       -0.022189755 0.032754723 -0.07216124 0.048129577
000030 c6 06 44 bd 00 45 b6 bd 73 ac 84 bd 7e 26 49 3d
       -0.047858022 -0.088998795 -0.064782046 0.049108975
000040 4b 41 ff 3b b7 7e 25 bd 9a 5c ff 3c d6 a8 a0 bc
       0.007789766 -0.040404048 0.031172086 -0.019611757
000050 ce 07 5d bd 56 7a 79 3b 36 a7 20 3d cd d8 2a 3d
       -0.05396252 0.0038067303 0.039221965 0.041710664
000060 e1 45 82 bd 8c 1b d3 bd 1e d8 21 3d 9d f1 73 bc
       -0.063609846 -0.103079885 0.039512746 -0.014889148
000070 86 14 89 3d e0 f1 64 3d 38 00 c1 3c 3e 5e 99 bd
       0.06693368 0.055894732 0.023559675 -0.074886784

layer3.bn.weight f4 [32]
000000 6b 12 85 3f 15 60 82 3f ea c2 80 3f 77 5f 72 3f
       1.0396246 1.0185572 1.0059483 0.9467692
000010 00 7f 86 3f 90 1a 72 3f b8 1d 77 3f 8f d6 7f 3f
       1.0507507 0.9457178 0.9652972 0.99936765
000020 47 82 7a 3f 13 10 84 3f c1 b0 78 3f 0b c4 82 3f
       0.9785504 1.0317405 0.97144705 1.0216078
000030 ff 1f 89 3f 0c 85 73 3f 2d 43 71 3f 51 1a 77 3f
       1.071289 0.9512489 0.9424313 0.9652453
000040 74 4b 88 3f 22 e3 7b 3f 9a 6d 84 3f c1 8d 79 3f
       1.0648026 0.9839345 1.0345948 0.97481924
000050 52 fd 80 3f 83 8f 77 3f cd 40 7c 3f 95 96 7f 3f
       1.0077307 0.96703357 0.9853638 0.99839145
000060 db d5 7e 3f 48 0c 81 3f 4a bb 74 3f ca 65 79 3f
       0.9954507 1.0081873 0.9559828 0.9742094
000070 9f 30 81 3f 56 86 89 3f e7 65 7e 3f 37 e1 77 3f
       1.0092963 1.0744121 0.9937424 0.96828026

layer3.bn.bias f4 [32]
000000 e4 5c 94 3c 8a cd aa 3c f9 de 44 3d e6 78 40 bd
       0.0181107 0.020849962 0.048064206 -0.046990298
000010 8b bb 3f 3d 65 5e dd 3b 8d d7 04 bd 98 3f db bb
       0.046809714 0.0067556375 -0.032432128 -0.0066909306
000020 9c 12 20 bd e6 30 e0 3c d0 b3 c7 bc ba 80 d3 3b
       -0.039080247 0.027367067 -0.024377733 0.0064545544
000030 92 0a a6 3d 7b 1d 50 bd f6 e2 c9 bc 19 3d 8c 3c
       0.08107485 -0.050809365 -0.024644356 0.017118977
000040 81 a5 bb bc e5 b0 98 3c f6 3f a2 3c 89 fc b1 bc
       -0.022906067 0.018639037 0.01980589 -0.021726863
000050 b2 38 76 3d 85 be c2 bc ff c1 43 3d 7a 07 f7 3b
       0.060112663 -0.023772487 0.04779243 0.007538733
000060 50 4e b7 bc 07 4a 0c bd 70 8e c8 ba 21 9a 24 3b
       -0.02237621 -0.034250285 -0.0015301239 0.0025116282
000070 17 21 95 3c 3b 46 94 3d e6 3d d7 3b d0 11 0e bc
       0.018204255 0.07239958 0.006568658 -0.008671239

layer3.bn.running_mean f4 [32]
000000 0d 17 ef bf b4 0c 7b 3e 90 a3 86 3f a9 bb 2e 3e
       -1.867891 0.24516565 1.0518665 0.17063774
000010 ae d6 c8 be ad f5 0e bf 50 69 17 bd 1a a0 75 3d
       -0.39226288 -0.5584362 -0.03696567 0.059967138
000020 26 ec 27 3f 82 dc 2b 3f 05 e1 7b be 3c b6 11 3f
       0.6559471 0.67133343 -0.24597557 0.5691869
000030 de a3 c1 3f d9 fd 25 3f 69 35 c5 3f 44 09 6b bf
       1.5128133 0.64840466 1.5406924 -0.91811013
000040 57 65 92 bf 3e d2 a1 3d ca 6f 32 3f f2 ff 9b bf
       -1.1437176 0.07901429 0.69701827 -1.2187483
000050 6c ce 3d 3f 0d ab 96 3f 44 a2 4f 3f cd 8b 98 3f
       0.741431 1.177095 0.8110697 1.1917664
000060 df 8c 75 bf a6 ac 24 3f 8a f5 59 3f 66 8a 4c bf
       -0.9591808 0.6432594 0.8514029 -0.7989868
000070 ca 52 97 3f 42 34 1d 3f 6b 32 60 3e d4 9d c5 bf
       1.182214 0.61407864 0.21894233 -1.543879

layer3.bn.running_var f4 [32]
000000 22 6a 22 3f b0 4f 8a 3e 29 15 d0 3e 45 90 c7 3f
       0.63443196 0.27013922 0.40641144 1.5590903
000010 a1 29 54 3f 3c 90 82 3f 9b 10 e7 3e f2 54 4f 3f
       0.8287602 1.0200267 0.45129856 0.8098899
000020 a1 b6 86 3f ae d5 46 3f 6b 9a 93 3e 37 79 e0 3e
       1.0524484 0.776698 0.2882875 0.4384248
000030 c7 01 8c 3e 84 20 e5 3f c3 f3 7c 3f 51 84 08 3f
       0.27345106 1.7900548 0.9880945 0.533269
000040 b6 9d 17 3f e6 4e 27 40 e1 6e 98 3e 52 82 d4 3e
       0.5922502 2.6141906 0.29772094 0.41505677
000050 07 0e a4 3e ba 6f ba 3f c7 9a 0d 3f ca 5a 9b 3f
       0.32041952 1.4565346 0.55314296 1.2137082
000060 f1 65 cd 3e 05 2d 59 3f 69 35 2d 3f 12 f7 55 3f
       0.40116838 0.8483432 0.6765962 0.83580124
000070 0b 19 0a 3f a6 58 8c 3e c9 16 48 3f 8e 6e 04 40
       0.5394446 0.27411383 0.7815977 2.0692477

layer4.conv.weight f4 [32, 32, 3, 3]
000000 54 47 04 bc a2 e8 ce bc 10 8a 6f 3d 4a 74 74 bc
       -0.008073647 -0.025257412 0.058481276 -0.014920304
000010 53 ee 1f bd a3 8c 7c bd ad 2a 74 3d 18 15 62 bd
       -0.039045643 -0.06165756 0.05961101 -0.055195898
000020 b3 4e 91 bc 84 3b 36 bc ee 9e 3d bc d4 d8 ac bc
       -0.017737722 -0.011122588 -0.011573536 -0.021099485
000030 38 c7 0f bd 06 d4 8f 3d e0 70 b7 3c c3 c3 84 bd
       -0.0351021 0.07022862 0.02239269 -0.06482651
000040 20 b7 9d 3d 64 b9 75 3d cd 55 a8 bd 52 0c 8d 3d
       0.07700944 0.059991255 -0.0821949 0.068871155
000050 b0 50 cb 3d fb fc 4c bd 9e 0c b3 bc 9a 8b 94 3d
       0.09927499 -0.05004595 -0.021856602 0.072531894
000060 6a 1e b4 3d b5 3e 87 bb 3e 24 74 3c 1a 97 1d bb
       0.087948635 -0.0041273483 0.014901219 -0.0024046362
000070 6d 7b 51 bd 00 db 43 bd a9 e4 c6 bd c9 7f 5b 3d
       -0.0511431 -0.047816277 -0.09711582 0.053588662
000080 d8 be a8 3c 48 6d 85 bc f4 1e 6a 3d 78 64 20 3d
       0.020598814 -0.01628746 0.057158425 0.039158314
000090 53 6a be 3d 77 c6 be 3c 18 e8 23 3b 3c fc 18 bd
       0.092976235 0.023287995 0.0025010165 -0.037349924
0000a0 8d be cb 3b 16 58 88 bd ed 3f 4f bd cf 0a 70 bd
       0.006217784 -0.06657426 -0.050598074 -0.058604058
0000b0 df 97 96 bd f4 17 59 3c b6 6c ca bd 1b 89 88 bd
       -0.07353186 0.01325034 -0.09884016 -0.06666776
0000c0 75 be 28 3c 20 3d 02 3d 82 ea 8b bc 19 b8 f0 bc
       0.010299315 0.031796575 -0.017079595 -0.02938466
0000d0 8c 10 d9 bc 78 36 6f bd c4 87 ff bc 3c df 32 bd
       -0.026497148 -0.058401555 -0.031192668 -0.043669924
0000e0 60 6f d9 bc 28 72 16 b9 bc 0b 7d 3d 85 5f 10 3d
       -0.026542366 -0.00014347641 0.06177877 0.035247345
0000f0 ee 00 34 bd 7b 0e 52 bd ad 3f 51 3d 7a e6 b5 ba
       -0.0439462 -0.05128334 0.051086117 -0.0013877891
000100 88 0f 96 3d 0e 35 2d 3d 6a ec 96 bc db f8 35 3d
       0.07327181 0.042286925 -0.018423278 0.04442678
000110 ae e4 62 3d 76 9f 06 3c 52 1a ca bc 4c 9b f8 bc
       0.055393867 0.008216729 -0.024670754 -0.030347489
000120 ad 4a 04 3c a9 ea ae 3c 72 ac 55 bd 3d 8d 95 3c
       0.008074445 0.021352129 -0.05216641 0.018255824
000130 9b 70 90 bc a2 76 30 bb f3 d5 3e bd 76 2a a2 3c
       -0.01763182 -0.002692618 -0.046590757 0.019795638
000140 c5 94 9d 3d 33 73 52 bc c0 3d a7 3c 9a ac 9e 3b
       0.07694391 -0.012844848 0.020415187 0.004842353
000150 64 b9 16 bd 0b e5 76 bd 76 af bd 3c 3a a4 06 bd
       -0.036797896 -0.060277026 0.023154955 -0.032871462
000160 30 13 59 3d 9e f5 8f 3a 8a 5f a8 3b d1 39 91 3c
       0.052996814 0.0010983234 0.0051383423 0.017727764
000170 4d d1 09 bc 63 c1 91 3c d6 a7 63 3d 5c d7 ad 3d
       -0.008411718 0.01779241 0.055579983 0.08488342
000180 38 78 db 3b a8 67 0d bd 78 b4 cf bc ea fc b5 bb
       0.006697681 -0.034522682 -0.025354609 -0.0055538313
000190 15 01 95 bd db bf 1d 3c 03 d8 5f 3d 1f 6d 3b bd
       -0.07275597 0.009628261 0.054649364 -0.045758363
0001a0 47 28 60 bc b3 5d 6f 3d b5 7c 9c 3b 97 10 07 bd
       -0.013681478 0.058438968 0.0047756084 -0.032974806
0001b0 95 13 44 bd 2b 8c e1 3c 27 c1 9d bd f2 bb 78 bd
       -0.047870237 0.027532658 -0.077028565 -0.060726114
0001c0 36 61 1c bd c9 d6 25 bd 57 86 3d 3d 89 f7 83 3c
       -0.038178645 -0.04048804 0.046270695 0.016109245
0001d0 73 42 21 3c 11 2d 4c bc eb f9 96 bc e1 0f 62 3d
       0.009842503 -0.012461917 -0.018429717 0.055190925
0001e0 02 75 68 bd 1a 4e c8 3c 22 9b 8f 3d 82 4e 33 bc
       -0.056752212 0.024451304 0.07012011 -0.010944011
0001f0 0d db 47 3c b6 32 64 3c f4 ff 64 bc cc 8d 8a bd
       0.012198222 0.013928106 -0.01397704 -0.06765327
000200 0c 87 9c bc e6 46 53 3b 9e 2a 93 3d a9 b3 74 3d
       -0.019107364 0.0032238304 0.07185863 0.05974165
000210 c2 b6 f2 3a 44 08 19 3c fe 14 99 3d 9b ee 9d bc
       0.0018517601 0.00934035 0.07474707 -0.019278815
000220 eb 76 bb 3c af 7c d4 bc 86 45 22 3d 05 48 ec bd
       0.022883853 -0.02593836 0.039617084 -0.11537174
000230 7e 6a 1b bd c6 12 88 bc 64 47 87 bd 61 12 73 3b
       -0.037943356 -0.016610514 -0.066054136 0.0037089812
000240 80 8d 93 3c fa 3d df b9 b0 56 fd bc 02 01 16 3b
       0.018011808 -0.0004258005 -0.030925125 0.0022888784
000250 b6 18 ae 3c 7c 46 d9 bc 2a 97 df 3c 7d 8a 86 bd
       0.021252017 -0.026522867 0.02729376 -0.06569383
000260 ac f9 a9 bd 85 5c 82 3d 88 d3 4a 3c 5e 92 57 3d
       -0.08299574 0.06365303 0.012379535 0.05262982
000270 34 3a da 3c c9 52 36 bc 1c 89 21 3d 0d bb 43 3c
       0.026639082 -0.011128136 0.0394374 0.011946452
000280 9d 19 1a bd f7 1f da 3d f7 4a 2c 3d 66 a9 e7 bb
       -0.037622083 0.10650628 0.04206368 -0.0070697544
000290 45 2e 98 bd b8 3b 0b bb 7b e3 a4 3d 51 af 27 3d
       -0.074307 -0.0021245312 0.08051201 0.04093868
0002a0 85 77 8b bd 96 bc 83 bd 00 a0 9b 3d e4 27 61 3d
       -0.06809906 -0.06432454 0.07598877 0.054969683
0002b0 49 b1 f0 3c a9 f7 90 3d 03 7b c4 bd 83 e5 49 bd
       0.029381411 0.070784874 -0.09593775 -0.049291145
0002c0 d6 c1 62 bd 44 5f 45 bd 13 b0 7f 3c 01 00 4d bd
       -0.055360638 -0.048186556 0.015605944 -0.05004883
0002d0 08 de 24 bd 96 85 eb bb e4 19 a7 bd 18 51 08 bc
       -0.040250808 -0.0071875555 -0.08159235 -0.0083201155
0002e0 ce 5e 3d 3d e1 66 12 3d 47 5f 84 3d 6d d8 82 bd
       0.04623299 0.035742644 0.06463485 -0.06388936
0002f0 11 4e d9 bc 56 99 21 3d 02 7e 43 3d 53 0c 14 3c
       -0.026526483 0.039452873 0.047727592 0.009036141
000300 da e7 70 3d 47 5f bf 3d 65 ff 2f 3b b1 43 cd 3b
       0.05881486 0.093443446 0.0026855108 0.006264173
000310 af f2 b3 3c 64 34 0d 3b 9c 3a 86 bc 54 f6 73 3c
       0.021966306 0.002154612 -0.016385369 0.014890272
000320 b1 b1 ae 3d 31 b8 0b 3c cc f3 18 3d 7a c9 94 3c
       0.08529986 0.008527801 0.037341878 0.018162478
000330 ef cd 88 bd fa 57 73 bb f4 92 7c bd 10 45 92 3d
       -0.06679904 -0.0037131296 -0.061663583 0.07142079
000340 e7 b1 4f bc c5 cd d6 bc 09 a7 af 3d 92 59 4e 3d
       -0.012676693 -0.026221165 0.08576781 0.05037839
000350 49 e1 c4 bb fc ae a0 3a d6 1f 2d 3c ee e5 3a 3d
       -0.0060083014 0.0012259181 0.010566672 0.045629434
000360 68 6f 7a bd 26 44 43 3d 78 a4 38 3d 1b ea 84 3c
       -0.0611414 0.047672413 0.045078725 0.016224911
000370 66 11 8a 3b 1f 27 85 bc cb f3 80 bd 37 c8 43 bd
       0.0042135 -0.016254006 -0.062965 -0.04779836
000380 07 87 d0 3c 92 c6 9d 3c 3e ba 32 bd 3d f4 d0 3c
       0.025455011 0.019259725 -0.043634646 0.025507087
000390 3c 61 32 3d ad e3 18 3d bb 89 4f 3d ec a3 fe bb
       0.04354976 0.037326504 0.05066846 -0.007771006
0003a0 22 83 b5 bc 5d 43 e0 bc 30 d0 45 3d da 86 03 bd
       -0.022157256 -0.027375871 0.048294246 -0.032111026
0003b0 91 39 08 bd 5b 23 9c bc ec 19 f9 b9 7f 63 75 3b
       -0.033258025 -0.019059828 -0.00047512294 0.0037443337
0003c0 9c e1 33 bd 23 e5 24 bd ca 74 85 3b fd b6 81 3c
       -0.04391633 -0.040257584 0.00407276 0.015834326
0003d0 06 ba 05 3d d8 43 d4 bd f4 31 61 bd fc b7 05 3d
       0.03264811 -0.10364503 -0.05497928 0.032646164
0003e0 db 92 12 bd d7 54 57 3c e4 68 52 bc ce 24 0d 3d
       -0.035784584 0.013142786 -0.012842391 0.034458928
0003f0 5d ff 38 bd 12 0f b3 bc 7a 05 7c 3d 94 bb 4d 3c
       -0.04516541 -0.021857772 0.06152866 0.012556929

layer4.conv.bias f4 [32]
000000 c6 56 37 3d 58 56 3d bd 51 74 0a bd d5 19 af bc
       0.044760488 -0.046224922 -0.033802334 -0.021374622
000010 7f 99 4a 3d 4f 77 98 bd bf 42 4e bd b6 8a 46 bc
       0.04946279 -0.07444631 -0.050356623 -0.012118032
000020 fe e9 d3 bc da 2f 96 bd d7 93 0b 3d fd 5a d9 3c
       -0.025868412 -0.07333346 0.034076538 0.026532644
000030 19 29 57 bd 46 25 b4 bc ff d7 39 3d 6b f4 08 3c
       -0.05252943 -0.02199043 0.045372006 0.008359055
000040 8b 04 ec 39 11 ea f9 bb 2d ba 84 bc a6 05 b0 bd
       0.00045016813 -0.00762678 -0.016202057 -0.08594827
000050 81 61 31 3d 4f dc 00 bd 26 a6 f4 bb b5 9e 2e bd
       0.043305878 -0.031460103 -0.0074660955 -0.042631824
000060 d8 af 91 bd 3e 5e cb 3c 93 b6 15 3d 90 9d 36 3d
       -0.07113618 0.024825212 0.03655107 0.044583857
000070 d4 c6 72 3d 02 67 a2 3c 31 3f 47 3c e6 b0 09 bd
       0.05927165 0.019824509 0.012161062 -0.03361597

layer4.bn.weight f4 [32]
000000 ae e1 74 3f cd 0d 7a 3f 6f d5 77 3f 9f ed 86 3f
       0.9565686 0.9767731 0.9681005 1.0541266
000010 70 39 78 3f db 02 83 3f c9 af 75 3f a2 54 81 3f
       0.9696264 1.0235246 0.9597135 1.0103953
000020 c7 35 84 3f a7 5c 80 3f 24 21 75 3f 57 a8 80 3f
       1.0328912 1.0028275 0.95753694 1.0051373
000030 7e b0 7b 3f 4e 03 82 3f c8 83 74 3f 47 8c 77 3f
       0.9831618 1.0157259 0.9551358 0.9669842
000040 63 fd 80 3f 6b 51 8a 3f df 4a 81 3f 15 84 84 3f
       1.0077327 1.0806097 1.0100974 1.0352808
000050 20 fe 84 3f e0 59 86 3f ed 4b 82 3f a9 74 75 3f
       1.0390053 1.0496178 1.0179421 0.95881134
000060 5c 33 6a 3f 6c 47 66 3f 59 23 84 3f 5e 46 80 3f
       0.9148462 0.8995273 1.0323287 1.0021474
000070 2b 30 81 3f 87 5b 70 3f 53 65 87 3f 16 e0 74 3f
       1.0092825 0.9388966 1.0577797 0.9565443

layer4.bn.bias f4 [32]
000000 70 10 1b bd 6f c1 a2 bd cc ef 77 bc 2b 53 32 3d
       -0.037857473 -0.07947051 -0.015132856 0.043536346
000010 ec a0 9b bd 90 86 81 bd 0c ab a9 bd 7f ba 19 3d
       -0.07599053 -0.06324494 -0.08284578 0.037531372
000020 0c 75 2a bd 66 a0 2c 3c ea f3 b1 bc 46 96 df bc
       -0.04161553 0.010536289 -0.021722753 -0.027293336
000030 ca 31 59 bc 3f f3 6e bc b9 c9 b3 bc aa ef 58 bd
       -0.0132565 -0.014584362 -0.021946775 -0.052962936
000040 ce cd e2 3c 36 ca 83 3d b5 5f a6 3c e9 9b 91 bd
       0.027686026 0.06435053 0.020309309 -0.071098156
000050 c2 18 b2 3c ea f3 74 3d 73 fc 86 bc be 6e 83 bd
       0.021740321 0.059802927 -0.016477799 -0.06417607
000060 94 08 ea bd a2 9d a4 bd 11 bc 37 bb dd 01 3e 3c
       -0.114274174 -0.080378786 -0.002803568 0.011597124
000070 bb 65 76 3c ae 06 b4 bc 61 bf 2e 3b 10 45 87 3c
       0.015038903 -0.021975841 0.0026664364 0.016512424

layer4.bn.running_mean f4 [32]
000000 60 7b 8d bd 55 0b 92 3f 91 1d 55 c0 3e 70 29 3e
       -0.069082975 1.1409708 -3.3299296 0.16546723
000010 7e e5 14 bc f1 e5 57 c0 6a 28 57 be fa 55 95 bd
       -0.009087918 -3.3734095 -0.2101151 -0.07291789
000020 f8 6f cd be 7c df b2 be 25 b7 bc bf 0e c7 0c 40
       -0.40124488 -0.3493613 -1.4743391 2.1996493
000030 62 a7 03 bf 4f 12 c0 3e 73 f7 a0 bf 8f e8 03 3f
       -0.5142728 0.37513968 -1.2575516 0.5152673
000040 1a 5c 97 bf 94 f0 54 3f d4 98 b7 bf 29 ff 0f 3f
       -1.1824982 0.83179593 -1.4343514 0.5624872
000050 f4 a2 f8 bf 70 d2 a0 3d 79 a1 49 3f 00 9f 5e bf
       -1.9424729 0.07852638 0.7876201 -0.86961365
000060 e1 36 bb 3f bf 9c 38 be de 6a 10 bf 8c 42 88 3f
       1.4626123 -0.18028544 -0.56413066 1.0645308
000070 4e 03 00 3f 0d 37 ec 3e 49 5f d8 3f 69 f4 39 40
       0.5000504 0.4613575 1.6904079 2.9055426

layer4.bn.running_var f4 [32]
000000 45 87 ce 3f fd 75 c5 3f c1 85 40 40 49 a2 ee 3f
       1.6135031 1.5426632 3.0081637 1.8643275
000010 df 2b 48 40 75 4e 1d 40 85 1f 0b 40 14 53 cd 3f
       3.1276777 2.4579136 2.1737988 1.6040978
000020 e0 40 9e 3f 98 a9 60 3f fe 71 21 40 52 c0 44 40
       1.2363548 0.8775878 2.5225825 3.0742383
000030 b6 25 00 40 06 4c 05 40 f6 be 1e 40 6b 4b a9 3f
       2.0023017 2.082765 2.4804053 1.3226141
000040 6a 3c 15 40 7f bf af 3f 81 d8 15 40 03 1f 75 3f
       2.3318124 1.3730315 2.3413393 0.95750445
000050 8c 80 f7 3f 1c 65 b8 3f a7 3b 1c 40 16 80 f3 3f
       1.9336104 1.4405856 2.441141 1.9023464
000060 d0 ad 96 3f 7c a8 2c 40 28 35 4d 3f ed cb 93 3f
       1.1771793 2.6977835 0.80159235 1.1546608
000070 2b 39 35 3f 64 19 c9 3f fa 6b 45 40 8a 9e 04 40
       0.70790356 1.5710874 3.0847154 2.0721765
